DigitClassifier2/app/src/main/assets/keras_model_cnn.tflite (tflite, 377096 bytes, 10 tensors)

sequential/dense/BiasAdd/ReadVariableOp f4 [64]
0	0xbca7d37b	-0.020486584
1	0x3d65a16f	0.05606216
2	0xbc07b8ca	-0.008283803
3	0xbcf39cd4	-0.029737867
4	0x3d8f373f	0.06992959
5	0x3d0c3f64	0.03424014
6	0x3d3c6abd	0.04600023
7	0xbd5d41de	-0.054017894
8	0xbd646c00	-0.05576706
9	0xbd22282f	-0.039589103
10	0xbc1c7a5b	-0.009550656
11	0xbd503412	-0.050830908
12	0x3bf96e7f	0.007612049
13	0xbc3528eb	-0.011057119
14	0x3c83b44c	0.016077183
15	0x3d8a43e6	0.06751232
16	0x3c791398	0.015202425
17	0xbbf38edb	-0.007432801
18	0xbd817e55	-0.06322924
19	0xbc91be25	-0.017790863
20	0xbd8dc83f	-0.069229595
21	0xbcf8edc4	-0.030386813
22	0xbc1cd10d	-0.009571326
23	0x3d12d09d	0.03584348
24	0x3ce4e6ec	0.027942143
25	0xbd9452ae	-0.072423324
26	0x3d455764	0.048179045
27	0xbd32964c	-0.043600366
28	0x3d91123b	0.07083555
29	0xbcc7c817	-0.024387402
30	0x3d5afbeb	0.053462904
31	0x3d9ec504	0.077524215
32	0x3d00c89e	0.031441323
33	0xbdd0585c	-0.10173103
34	0xbca3da72	-0.020001624
35	0xbd468d6e	-0.04847472
36	0x3c2a828a	0.0104070995
37	0x3d72cec1	0.059279207
38	0x3d7e903f	0.062149283
39	0xbd66f516	-0.056386076
40	0x3bc6d2bb	0.0060676015
41	0x3c8dbc9b	0.017301848
42	0xbd91471f	-0.070936434
43	0x3da933b6	0.08261816
44	0x3d5a38b0	0.053276718
45	0xbd646495	-0.055759985
46	0xbcd92224	-0.026505537
47	0x3d2e85c3	0.042608034
48	0x3d86dce4	0.065851
49	0xbcb9fd77	-0.02270387
50	0xbd8f7711	-0.07005132
51	0x3dd01c1a	0.1016161
52	0xbcc23113	-0.023705041
53	0x3d13ac54	0.036053017
54	0x3d8ec2c8	0.06970745
55	0xbd1144dc	-0.03546606
56	0x3c4e53d0	0.012593225
57	0xbb0155e2	-0.0019735028
58	0xbc74af22	-0.014934333
59	0x3cf7356c	0.03017684
60	0x3c008890	0.007845059
61	0xbc02fbea	-0.007994631
62	0x3cc36e3e	0.023856279
63	0xbd6eff6c	-0.058349058

sequential/dense_1/BiasAdd/ReadVariableOp f4 [10]
0	0xbc06cb3f	-0.008227169
1	0x3d6340f4	0.055481866
2	0xbd605145	-0.054765005
3	0x3ccdbb2a	0.02511366
4	0x3c92ffb8	0.017944202
5	0xbd65f633	-0.056142997
6	0xbd27b136	-0.040940486
7	0x3c540e8b	0.01294292
8	0x3dace6e6	0.08442478
9	0xbd3ee095	-0.046600897

sequential/conv2d/BiasAdd/ReadVariableOp f4 [32]
0	0xbdd7cf41	-0.105375774
1	0xbdcfb61b	-0.10142156
2	0x3d1ca234	0.038240626
3	0xbcdf3de6	-0.027251195
4	0xbcfc9017	-0.030830426
5	0x3d7bead9	0.061503265
6	0xbc888598	-0.016665265
7	0xbd0b7a11	-0.03405196
8	0xbd0b817b	-0.03405903
9	0xbcf1f4a1	-0.029535593
10	0x3d3fb422	0.046802647
11	0xbe10bd69	-0.14134754
12	0xbc625b72	-0.013815748
13	0xbc6d452c	-0.014481824
14	0xbd810c82	-0.06301214
15	0xbd821daf	-0.06353318
16	0xbd192f55	-0.037398655
17	0xbdf63eb2	-0.12023677
18	0xbcad9e42	-0.021193627
19	0xbe051700	-0.12997055
20	0xbc02afd9	-0.007976496
21	0xbc73acb1	-0.014872716
22	0xbd701a8f	-0.05861908
23	0xbc854b2e	-0.0162712
24	0xbc8eb06c	-0.017418109
25	0xbdb10aee	-0.08644663
26	0xbbedc6f1	-0.0072563817
27	0xbda8d447	-0.08243614
28	0xbbebcc8e	-0.0071960157
29	0xbd6beb0f	-0.057597216
30	0xbd09ec51	-0.033672635
31	0x3d513f9e	0.05108606

sequential/conv2d_2/BiasAdd/ReadVariableOp f4 [64]
0	0x3c024cc7	0.007952875
1	0xbdc34920	-0.09535432
2	0xbc704d12	-0.0146668125
3	0xbd519e1e	-0.051176183
4	0x3cc34439	0.023836242
5	0xbcee0a89	-0.029057758
6	0xbcd633a5	-0.026147673
7	0x3b91365d	0.0044315294
8	0xbcae9c69	-0.021314817
9	0x3cd1585c	0.025554828
10	0x3baf92da	0.0053580822
11	0xbd0099d0	-0.031396687
12	0xbc99f8cf	-0.018795399
13	0xbb984918	-0.0046473853
14	0x3c79471e	0.01521471
15	0x39974625	0.00028853226
16	0x3c5d38d4	0.013502318
17	0x3d1c06ae	0.038092308
18	0x3ceaa384	0.028642423
19	0xbc9059f7	-0.017621024
20	0xbd5be6b3	-0.05368681
21	0xbccdd6e2	-0.025126878
22	0x3c889a7c	0.016675226
23	0xbc3ef8eb	-0.011656026
24	0xbcfbb784	-0.030727156
25	0x3b92aee3	0.0044764145
26	0xbc6a47cb	-0.014299343
27	0xbb47236a	-0.0030386099
28	0x3bd0b153	0.006368795
29	0xbc8fc23b	-0.017548671
30	0x3b97494f	0.0046168934
31	0xba5042b9	-0.0007944513
32	0xbd191a09	-0.037378345
33	0xbd3102d4	-0.043215588
34	0x3d0a0e46	0.03370502
35	0x3c8916f1	0.016734572
36	0xbd5540f5	-0.0520639
37	0xbccb6100	-0.024826527
38	0x3c4ccfc4	0.012500707
39	0xbc32d57e	-0.010915158
40	0xbccab8d0	-0.024746329
41	0x3d64348a	0.055714168
42	0x3d359982	0.04433585
43	0xbccb1ecf	-0.024794964
44	0x3da3d256	0.07999103
45	0xbc76e1f3	-0.015068519
46	0xbc950f8a	-0.018195886
47	0xbcba169d	-0.022715861
48	0x3d33c9f2	0.043893762
49	0xbd1b3490	-0.037891924
50	0xbdd8cbf3	-0.10585775
51	0x3bcd1dc7	0.0062596533
52	0xbc89bb9a	-0.016813088
53	0xbc1e7908	-0.009672411
54	0xbc3cb5d8	-0.011517964
55	0x3d4e439a	0.05035744
56	0xbc084de4	-0.008319352
57	0xbd38d2ab	-0.045122784
58	0x3d863a46	0.065540835
59	0x3c11fcab	0.008910338
60	0xbcb7dde8	-0.02244468
61	0x3d4e700e	0.050399832
62	0xbb51990f	-0.00319821
63	0xbcefa281	-0.029252293

sequential/conv2d_1/BiasAdd/ReadVariableOp f4 [64]
0	0xbbdd2e14	-0.0067498777
1	0xbda6e0bb	-0.08148333
2	0x3ca45336	0.02005921
3	0x3c9be23f	0.019028781
4	0xbd116190	-0.035493433
5	0xbd3f42db	-0.046694618
6	0xbd823161	-0.063570745
7	0x3cce0207	0.025147451
8	0x3c825e60	0.015914142
9	0xbbde23ac	-0.0067791548
10	0xbd31227e	-0.043245785
11	0xbcdbc509	-0.026827352
12	0xbc3b9f87	-0.0114516085
13	0xbd4015de	-0.046895854
14	0xbc39a11c	-0.011329915
15	0xbdd97f43	-0.10619976
16	0xbd2cad14	-0.042157248
17	0x3c8677a6	0.016414475
18	0xba6da15c	-0.0009064877
19	0xbd808a83	-0.06276419
20	0xbd811924	-0.06303623
21	0xbaca6140	-0.001544036
22	0x3c0a8d20	0.008456498
23	0xbd206ba8	-0.03916517
24	0x3c64f188	0.013973601
25	0x3d65d02e	0.05610674
26	0xbd1e68f6	-0.038674317
27	0xbd5ea031	-0.05435199
28	0xbca9483e	-0.02066433
29	0xbd228e1c	-0.039686307
30	0xbdb10095	-0.08642689
31	0xbcf63b4a	-0.030057568
32	0xbc95c817	-0.018283887
33	0xbd1e6bb7	-0.038676944
34	0xbd808447	-0.0627523
35	0xbd03a454	-0.032139137
36	0xbc80d5df	-0.015726982
37	0xbbf78af8	-0.007554408
38	0xbd77c564	-0.06049098
39	0xbcec4560	-0.028841674
40	0xbd8702e4	-0.06592348
41	0x3cf55351	0.029946955
42	0xbbffed37	-0.0078102606
43	0xbdce5114	-0.10074058
44	0xbc19a65c	-0.009378042
45	0xbd9e0f36	-0.07717745
46	0xbd825a68	-0.063649
47	0xbdb0ae54	-0.086270005
48	0xbdaff592	-0.08591761
49	0xbd5dbc0d	-0.054134417
50	0x3ce67e8b	0.028136512
51	0xbd94e321	-0.07269884
52	0xbd385f39	-0.045012686
53	0xbd6e6a59	-0.05820689
54	0xbcd7eb10	-0.026357204
55	0xbd8262cc	-0.063665
56	0xbdf93d09	-0.12169845
57	0xbd14c991	-0.03632504
58	0xbcaf5166	-0.021401118
59	0xbd78f030	-0.060775936
60	0xbd59db1b	-0.05318747
61	0xbd9570ab	-0.0729688
62	0x3c2cbb71	0.010542736
63	0xbc21296f	-0.009836539

sequential/dense/MatMul f4 [64, 576]
0	0x3db6cc74	0.08925715
1	0x3dfcd3cd	0.12345085
2	0xbea247d2	-0.3169542
3	0xbd41c6eb	-0.047308844
4	0x3d64c2c8	0.05584982
5	0xbe25645b	-0.16151564
6	0xbdabe96d	-0.08394132
7	0x3da68869	0.08131487
8	0x3d572aa4	0.0525309
9	0xbdbb1078	-0.091340005
10	0xbde0ef16	-0.10983102
11	0xbe00d304	-0.12580496
12	0xbd017157	-0.03160223
13	0xbda9afca	-0.08285482
14	0x3d298d84	0.041394725
15	0x3d7e76e6	0.06212511
16	0x3e601a87	0.2188512
17	0x3df1201d	0.11773703
18	0xbc647e00	-0.013946056
19	0xbd08944b	-0.03334455
20	0x3e2147c3	0.15750031
21	0x3e43e084	0.19128615
22	0xbbf9372e	-0.007605455
23	0xbd393a73	-0.045221757
24	0x3d7801cf	0.0605486
25	0x3e04d498	0.12971723
26	0x3d1b52a4	0.03792061
27	0x3e129b40	0.14317036
28	0x3d978824	0.07399014
29	0x3d5fe0f5	0.054657895
30	0xbdce367b	-0.10068985
31	0x3d384956	0.044991814
32	0xbd9858f7	-0.07438844
33	0xbe0f2353	-0.13978319
34	0xbcecf27f	-0.028924225
35	0x3dab213b	0.083559476
36	0xbdbc5ac1	-0.091969974
37	0xbcfb86fe	-0.030704018
38	0xbbb04ca4	-0.00538023
39	0x3d31c4ae	0.04340046
40	0x3d0b8d8c	0.034070536
41	0xbdd791d7	-0.105258636
42	0x3def081f	0.11671471
43	0x3dbad327	0.09122305
44	0x3cc1ef6c	0.023673736
45	0x3c7f7262	0.015591236
46	0xbcf81eb0	-0.03028807
47	0x3d22ff5c	0.03979431
48	0x3de89c9c	0.11357996
49	0xbcd4b851	-0.025966795
50	0xbe2a4ae0	-0.16630125
51	0xbd3833cf	-0.044971284
52	0x3dc24fd9	0.09487886
53	0xbc110a80	-0.008852601
54	0xbd6c61c1	-0.057710413
55	0xbd714bdf	-0.058910247
56	0xbdac47c3	-0.08412125
57	0x3c3d3b54	0.011549789
58	0xbdbe826b	-0.09302219
59	0x3cbd1299	0.023080157
60	0x3d78b55e	0.06071984
61	0x3cbb88eb	0.022892436
62	0x3dd61e5d	0.1045501
63	0xbd558206	-0.052125953
64	0xb8af4910	-8.358259e-05
65	0xbd168d30	-0.03675574
66	0xbd24c58f	-0.04022747
67	0x3e0b4100	0.13599014
68	0xbd1ecc2b	-0.03876893
69	0xbdda40d8	-0.10656899
70	0x3ca9eb14	0.020741977
71	0xbe3e96f9	-0.18612279
72	0x3c24eef3	0.010066736
73	0xbdf0ee46	-0.11764197
74	0x3d3416b6	0.04396697
75	0xbd396f5d	-0.04527222
76	0x3db46d54	0.08809915
77	0x3e80f7cc	0.25189054
78	0xbdf77fed	-0.12084947
79	0xbdbd7f7e	-0.09252833
80	0xbdb9226a	-0.09039767
81	0xbd30fa2e	-0.04320734
82	0x3d9a473c	0.07533118
83	0x3cd4f63c	0.02599632
84	0x3d804d85	0.06264786
85	0xbd293809	-0.041313205
86	0xbd6e4e29	-0.058180008
87	0x3e05271e	0.13003203
88	0x3be41c8c	0.006961411
89	0xbd42ca86	-0.047556423
90	0x3e0f3b76	0.13987526
91	0xbda3d170	-0.079989314
92	0xbdf30042	-0.118652835
93	0x3de97d6e	0.11400877
94	0x3d83ff03	0.06445124
95	0x3d17fa2f	0.037103828
96	0xbd7a735b	-0.061145168
97	0x3c621226	0.013798272
98	0x3e154a11	0.14579035
99	0x3e0f0a9c	0.13968891
100	0xbe06023c	-0.1308679
101	0xbd1c2226	-0.038118504
102	0xbd503658	-0.050833076
103	0x3e0cdbce	0.13755724
104	0xbcc7d541	-0.02439368
105	0xbe4f9d4d	-0.20274849
106	0xbca7ffc9	-0.02050771
107	0xbba4dd2c	-0.0050312486
108	0xbcdfc82b	-0.027317127
109	0xbd53f92a	-0.051751293
110	0x3e317103	0.17328267
111	0x3e2e3f17	0.17016254
112	0x3d9df8d3	0.07713475
113	0xbd61cf12	-0.05512912
114	0xbc788342	-0.015168013
115	0xbdbd3fea	-0.09240706
116	0xbe68c66c	-0.22731942
117	0x3dad496c	0.0846127
118	0x3d4cbb4b	0.049983304
119	0xbe0f94f8	-0.14021671
120	0xbe3d61e2	-0.1849437
121	0xbdd47d2e	-0.10375439
122	0xbe3c0679	-0.18361844
123	0xbd9e6e59	-0.07735891
124	0x3d05e2cd	0.032686997
125	0x3dca84b0	0.098885894
126	0xbd84186d	-0.06449971
127	0x3cba7992	0.022763047
128	0x3daf3f12	0.085569516
129	0x3c7ceea0	0.015437752
130	0x3de0815d	0.10962174
131	0xbdcaae1a	-0.098964885
132	0xbd8c69d7	-0.06856125
133	0x3e0adae2	0.1356006
134	0x3c2faa90	0.010721818
135	0xbe900279	-0.28126886
136	0x3dbab773	0.091170214
137	0x3e1635be	0.14668939
138	0xbce89609	-0.028391855
139	0x3d199f59	0.03750548
140	0x3d82fea5	0.06396226
141	0xbadb1dfc	-0.001671731
142	0x3e2ab3f8	0.16670215
143	0xbe21678c	-0.15762156
144	0xbd9fb19a	-0.07797547
145	0xbbff4d0c	-0.007791167
146	0x3da91bca	0.082572535
147	0x3ddf0ced	0.10891137
148	0xbe1d2e3a	-0.15349665
149	0x3e12d95f	0.14340733
150	0xbe1916bb	-0.14950077
151	0xbddf3631	-0.10899008
152	0x3dcd283a	0.10017438
153	0xbd9b79c9	-0.07591588
154	0x3d4b97a4	0.049705163
155	0xbe402b07	-0.18766414
156	0xbeb84670	-0.3599124
157	0x3e0486df	0.12942074
158	0xbc184a4f	-0.00929506
159	0xbe77978d	-0.24178906
160	0xbdadabe0	-0.08480048
161	0x3dd2d75a	0.10294981
162	0xbd98c846	-0.07460074
163	0x3e103536	0.14082798
164	0x3cc8ecbb	0.024526944
165	0xbe4035b3	-0.18770485
166	0xbceb4e6e	-0.028723922
167	0xbd157d4f	-0.036496457
168	0xbd97c87d	-0.07411287
169	0x3e427ec5	0.18993671
170	0x3d38ec8a	0.045147456
171	0xba5f5abf	-0.0008520297
172	0xbd4e12a5	-0.05031075
173	0xbd95b21a	-0.07309361
174	0xbe0921a0	-0.13391733
175	0x3d6eba76	0.05828329
176	0xbc0887a7	-0.008333123
177	0xbe96f2c5	-0.29482093
178	0xbd1726ef	-0.036902364
179	0xbe0ce1a3	-0.13757949
180	0x3c8aa1dc	0.016922884
181	0x3d9f5eeb	0.07781776
182	0x3df63611	0.12022031
183	0xbe9abedf	-0.30223748
184	0x3e2cb46c	0.168657
185	0xbe5b1b05	-0.21397026
186	0x3da99a5d	0.082813956
187	0xbe38b6ed	-0.1803853
188	0xbd9a25b4	-0.075267226
189	0x3cdee78f	0.027210025
190	0xbccc31f2	-0.02492616
191	0x3cba05b9	0.022707807
192	0x3d04bf0a	0.03240875
193	0x3d2ca4bc	0.04214929
194	0xbe4c78e9	-0.19967999
195	0x3e19e621	0.15029193
196	0x3d107f27	0.035277512
197	0xbdafccf9	-0.08584017
198	0xbd578ad5	-0.052622635
199	0xbda0c7c0	-0.07850599
200	0xbd3369b3	-0.043801975
201	0x3e6ae3cd	0.22938462
202	0x3e056cdd	0.1302981
203	0xbd78392e	-0.060601406
204	0xbd49400d	-0.04913335
205	0x3be51786	0.0069913296
206	0x3c96c443	0.018404132
207	0x3e2c9471	0.16853501
208	0xbb937760	-0.0045003146
209	0x3da8a2bf	0.08234166
210	0x3d796435	0.06088658
211	0x3d712ce9	0.05888072
212	0x3e04f9fc	0.12985986
213	0xbd14748e	-0.036243968
214	0xbd792a51	-0.06083137
215	0xbd9a9a4d	-0.07548962
216	0x3daae2dd	0.08344052
217	0xbe3640e5	-0.17798193
218	0xbd436fdf	-0.04771411
219	0x3de7dba8	0.11321193
220	0xbdb8c667	-0.09022217
221	0xbda36ba7	-0.079795174
222	0x3dc4b555	0.09604899
223	0x3ccd396f	0.0250518
224	0x3d2c422a	0.042055286
225	0x3dc6a42f	0.09699284
226	0xbd9cb62b	-0.07651933
227	0xbcfc2479	-0.03077911
228	0x3d89ade5	0.06722621
229	0x3cfd364e	0.030909684
230	0x3d158403	0.03650285
231	0xbd10da99	-0.03536472
232	0x3cda6b81	0.02666259
233	0xbd7414ee	-0.059590273
234	0x3bf995ad	0.0076167197
235	0x3af5544e	0.0018717141
236	0xbd4e913e	-0.050431482
237	0xbda2171e	-0.079145655
238	0xbe034d18	-0.12822378
239	0x3e41862c	0.18898839
240	0x3d5db614	0.05412872
241	0x3da10294	0.0786182
242	0xbd646f9d	-0.055770505
243	0xbe8ae7f0	-0.2713008
244	0xbde89b8f	-0.113577954
245	0x3b7d1660	0.0038618073
246	0xbd0ef557	-0.034901943
247	0x3de784ee	0.11304651
248	0xbe0c4bf0	-0.13700843
249	0x3e21037e	0.15723988
250	0x3e303b7e	0.17210194
251	0xbdfd3a44	-0.12364629
252	0xbdd53558	-0.10410565
253	0x3dc4e4b3	0.096139334
254	0x3cea2abc	0.02858483
255	0x3c8668c6	0.016407382

sequential/dense_1/MatMul f4 [10, 64]
0	0xbc81889e	-0.015812214
1	0x3df5e5d4	0.12006727
2	0xbd875de0	-0.06609702
3	0x3e9a2676	0.30107468
4	0x3c2a8df6	0.010409823
5	0xbd63dcbf	-0.05563044
6	0x3d81a119	0.06329555
7	0x3e45c823	0.19314627
8	0xbd52985b	-0.05141483
9	0xbcd4050c	-0.025881313
10	0x3e1da1fd	0.15393825
11	0xbe02beb6	-0.12768063
12	0xbdfeeffa	-0.12448116
13	0x3e5e9636	0.21736988
14	0xbd862e75	-0.0655183
15	0x3d2f2adc	0.042765483
16	0xbc87bdb9	-0.016569959
17	0xbd6506f4	-0.055914834
18	0xbe01aa6b	-0.12662666
19	0x3e2bff40	0.16796589
20	0x3da37128	0.07980567
21	0x3de8afad	0.113616325
22	0xbdffb79c	-0.124861926
23	0x3e8ae76f	0.27129695
24	0xbdc9c8c8	-0.09852749
25	0x3da0b38f	0.07846748
26	0xbeea4d89	-0.4576228
27	0x3e3865ae	0.18007538
28	0xbe8f60c6	-0.2800352
29	0x3dfafb08	0.12254912
30	0xbeca434a	-0.39504462
31	0xbc8122ea	-0.015763719
32	0xbe2cd89a	-0.16879502
33	0xbd40ea1d	-0.047098268
34	0xbe57bedc	-0.21068901
35	0x3e91fed2	0.28514725
36	0xbd9e0027	-0.07714873
37	0x3d74155b	0.05959068
38	0x3e9263a8	0.28591657
39	0xbe080db8	-0.13286483
40	0xbebe0f18	-0.3712089
41	0xbefc02c0	-0.49220848
42	0xbd9e5f95	-0.077330746
43	0x3dcaf634	0.09910241
44	0xbd6453da	-0.05574403
45	0x3df1aa14	0.11800018
46	0xbe29a194	-0.16565543
47	0xbaf61495	-0.0018774444
48	0xbeaaaa76	-0.33333176
49	0xbe186dad	-0.14885588
50	0x3e7c03dd	0.24610849
51	0xbefea845	-0.49737754
52	0x3db5311a	0.08847256
53	0xbde1c062	-0.11023022
54	0x3e712753	0.23550157
55	0x3aa95788	0.0012919763
56	0x3e46e4a7	0.19423161
57	0xbd7a6297	-0.06112918
58	0xbedc635d	-0.43044558
59	0xbe8a88c3	-0.27057466
60	0xbe6e26c5	-0.23256977
61	0xbe8c7c2c	-0.27438486
62	0x3d7241cf	0.05914479
63	0x3d0f2fb9	0.03495762
64	0x3e59b43d	0.21260162
65	0x3c30eabb	0.010798152
66	0x3e70bc13	0.23509245
67	0xbeb94292	-0.36183602
68	0x3e14faa0	0.14548731
69	0xbe932cf4	-0.28745234
70	0xbe3c7568	-0.18404162
71	0xbd08ab8d	-0.03336673
72	0xbce8fad8	-0.028439924
73	0x3db888ee	0.09010492
74	0xbe4c3d38	-0.19945228
75	0x3d3c5f54	0.04598935
76	0xbcea9582	-0.028635744
77	0x3e31bf45	0.1735812
78	0x3e3d18d7	0.18466507
79	0x3e6ee39f	0.23329018
80	0xbe1612a8	-0.14655554
81	0x3e010a2c	0.12601537
82	0xbe07e51e	-0.13270995
83	0xbe94750a	-0.28995544
84	0xbd207c3e	-0.039180987
85	0xbef43262	-0.4769469
86	0x3dbb1aa7	0.09135943
87	0x3e8ebe07	0.27879354
88	0x3d71d981	0.05904532
89	0x3def6611	0.116893895
90	0xbe55db21	-0.20884372
91	0xbec8b684	-0.39201748
92	0xbe02a5c4	-0.12758547
93	0xbcf2b97d	-0.029629463
94	0x3d0aac9f	0.03385603
95	0xbec4a061	-0.3840361
96	0xbe067be1	-0.13133194
97	0xbe8b191f	-0.27167603
98	0x3dcb8233	0.09936943
99	0xbe81a07b	-0.2531775
100	0x3d9d1400	0.0766983
101	0x3e58e50c	0.21181124
102	0xbe99f742	-0.30071455
103	0xbe89f65e	-0.26945776
104	0xbcddb23f	-0.027062533
105	0x3e4bc7c7	0.19900428
106	0xbe2f2771	-0.1710489
107	0x3e05977a	0.13046065
108	0x3e89162c	0.26774728
109	0xbdd547c1	-0.104140766
110	0x3dbd7a93	0.09251895
111	0xbc934bc6	-0.017980468
112	0x3d7b6eb7	0.061384883
113	0xbed46193	-0.41480693
114	0xbe082d4c	-0.1329853
115	0x3de8e529	0.11371834
116	0xbd918352	-0.071051255
117	0xbed074e9	-0.40714195
118	0xbe498b9e	-0.19682166
119	0xbcf22ed1	-0.02956334
120	0xbe133ec4	-0.14379412
121	0xbd8866c6	-0.066602275
122	0xbc065e64	-0.008201215
123	0xbe14d50e	-0.14534399
124	0x3e5e530e	0.2171137
125	0x3e5562c8	0.20838463
126	0xbe5aee50	-0.21379972
127	0xbe5205fa	-0.20510092
128	0x3e49b716	0.19698748
129	0xbe9a3642	-0.3011952
130	0xbe7c8420	-0.24659777
131	0xbe50c5cf	-0.20387958
132	0x3d635811	0.05550391
133	0xbe40cba4	-0.18827683
134	0xbe85a1ba	-0.2609995
135	0x3d63daf7	0.055628743
136	0xbba12c21	-0.0049185907
137	0xbd77b8a6	-0.06047883
138	0x3e5e74e4	0.21724278
139	0xbeb605db	-0.35551342
140	0xbe630028	-0.22168028
141	0xbeba63db	-0.3640431
142	0x3e01bfe0	0.12670851
143	0xbdfbefb5	-0.1230158
144	0x3e747ebb	0.23876469
145	0xbdcd86bf	-0.100354664
146	0x3e269a05	0.16269691
147	0x3e622a1b	0.22086374
148	0x3b59c49c	0.003322876
149	0xbd6a72c1	-0.057238344
150	0x3e4977e4	0.19674641
151	0x3e480710	0.19533944
152	0xbec7a8f6	-0.38996094
153	0x3e3d9b2f	0.18516229
154	0x3ea306db	0.31841168
155	0xbe2cb39e	-0.16865394
156	0xbea657ec	-0.32488954
157	0x3d785236	0.060625277
158	0xbe48c023	-0.19604544
159	0xbe976c36	-0.29574746
160	0x3e071ea2	0.13195279
161	0x3e3a0aee	0.18168232
162	0x3e90b377	0.2826192
163	0x3e88559e	0.2662782
164	0xbe286f0e	-0.16448614
165	0x3c20e4e6	0.009820199
166	0xbc299299	-0.010349893
167	0xbe4fc7c7	-0.20291053
168	0xbcd6aaed	-0.02620455
169	0xbe9cf992	-0.30659157
170	0x3c6207ec	0.013795834
171	0xbd338e94	-0.043837145
172	0xbe7c9b7f	-0.24668692
173	0x3cadedfe	0.021231648
174	0xbca74c64	-0.020422168
175	0x3dc599ec	0.09648499
176	0xbdf460b0	-0.11932504
177	0x3df6fd54	0.12060037
178	0x3df46e08	0.11935049
179	0xbe0e81b0	-0.1391666
180	0xbdc9697d	-0.098345734
181	0x3e4bc5cb	0.19899671
182	0xbd9858c2	-0.07438804
183	0x3d3b0112	0.045655318
184	0xbe4874ff	-0.1957588
185	0x3e8e1ad6	0.2775485
186	0xbca7d203	-0.020485884
187	0xbe9cc2de	-0.30617422
188	0x3c3d77cc	0.011564206
189	0x3d996c11	0.07491315
190	0xbc907709	-0.017634885
191	0x3e774e5b	0.24150984
192	0xbe8df741	-0.27727702
193	0xbeae191e	-0.34003538
194	0xbe8c0f8c	-0.2735561
195	0x3a8e9aac	0.0010879836
196	0x3e9059c0	0.28193474
197	0x3dfcfa51	0.123524316
198	0x3dfa3b25	0.12218312
199	0x3d42a160	0.04751718
200	0xbe0510b0	-0.12994647
201	0xbe632636	-0.22182545
202	0x3e587808	0.21139538
203	0xbea7a157	-0.3274028
204	0xbebddef1	-0.37084153
205	0xbe5f8832	-0.21829298
206	0xbe9a087d	-0.300846
207	0x3e01fe64	0.12694699
208	0xbeabac99	-0.3353012
209	0xbe868ecd	-0.26280823
210	0x3dd10fb8	0.10208076
211	0xbd6213bd	-0.055194605
212	0xbe905369	-0.28188637
213	0xbd85701d	-0.065155245
214	0xbe12f936	-0.14352879
215	0xbe96d442	-0.29458815
216	0x3e80343f	0.2503986
217	0xbea1d5de	-0.3160848
218	0x3eafe67f	0.34355542
219	0xbe6758a0	-0.22592402
220	0x3e30ecd5	0.17277844
221	0x3dc39b04	0.09551051
222	0x3e15f69f	0.1464486
223	0xbeb30b90	-0.3496976
224	0x3d773ed8	0.060362667
225	0xbe5117f3	-0.20419292
226	0x3dcb425c	0.099247664
227	0x3ccb57f0	0.024822205
228	0x3e9cd935	0.30634466
229	0x3dd01b7d	0.10161493
230	0x3ea66ac0	0.3250332
231	0xbda457d7	-0.080245666
232	0xbd8143b5	-0.06311742
233	0xbbdb66da	-0.0066956105
234	0xbe92436a	-0.28567058
235	0x3e3e8b80	0.18607903
236	0xbdfa3a56	-0.12218158
237	0xbdfebe7d	-0.124386765
238	0x3cd2ec3a	0.025747407
239	0x3e497edc	0.196773
240	0x3da9c68a	0.082898214
241	0xbde2cb26	-0.11073904
242	0xbe0cc3af	-0.13746522
243	0xbed65553	-0.41861972
244	0x3ce8cbf9	0.028417574
245	0x3cbbefd9	0.022941517
246	0xbe547410	-0.207474
247	0x3de3dbc7	0.111259036
248	0xbebdb5a5	-0.37052646
249	0xbe5b868e	-0.21438047
250	0x3e1ccb08	0.15311825
251	0xbe179656	-0.14803442
252	0xbe8a27c5	-0.26983467
253	0x3d75cada	0.060007907
254	0x3cb77b6d	0.022397721
255	0xbd23b3e9	-0.039966498

sequential/conv2d/Conv2D f4 [32, 3, 3, 1]
0	0xbc56a699	-0.013101243
1	0xbe357918	-0.17721975
2	0x3de24e61	0.11050106
3	0xbbc5d000	-0.0060367584
4	0x3e385676	0.18001732
5	0x3db852d2	0.09000172
6	0x3dd0e493	0.10199847
7	0x3cf067a9	0.029346304
8	0xbe2002e3	-0.15626101
9	0xbdc41975	-0.09575168
10	0xbcff9a9e	-0.031201657
11	0xba31aabf	-0.00067774573
12	0x3c07881f	0.0082722
13	0xbdf41312	-0.119177
14	0x3dc5b5da	0.09653826
15	0xbd5c8ec6	-0.053847097
16	0xbd91e14b	-0.07123049
17	0x3db434af	0.08799111
18	0x3da72dd6	0.081630394
19	0x3dce0692	0.10059847
20	0x3ea0f846	0.31439418
21	0xbe44c30e	-0.19215032
22	0xbcc4497f	-0.023960827
23	0xbd1e1090	-0.038590014
24	0xbe5fabd3	-0.2184289
25	0xbec0d698	-0.37663722
26	0xbea71139	-0.32630327
27	0x3dc152bb	0.09439608
28	0x3d32c3ab	0.043643635
29	0x3e0844c2	0.13307479
30	0xbe5774e2	-0.21040681
31	0x3d6fb0a9	0.058518086
32	0xbd7df7a0	-0.06200373
33	0xbe761689	-0.24032034
34	0xbe1f9aa4	-0.15586334
35	0x3cb77f2d	0.02239951
36	0xbd3e779d	-0.04650079
37	0xbe59db76	-0.21275124
38	0xbe848ee0	-0.25890255
39	0x3e9904fc	0.29886615
40	0xbd01f4c6	-0.031727575
41	0xbddfe860	-0.10932994
42	0x3e4946d1	0.1965592
43	0x3e024ae2	0.12723878
44	0x3d19da92	0.03756196
45	0x3eb8726b	0.36024794
46	0x3e4dac93	0.20085363
47	0x3d587586	0.052846454
48	0x3da69b87	0.08135133
49	0xbc84cf8f	-0.016212253
50	0xbe8c9505	-0.27457443
51	0xbec58ecf	-0.38585517
52	0xbebd9ac6	-0.37032145
53	0xbe0ab597	-0.13545834
54	0xbc16d153	-0.00920518
55	0xbe1d5ab5	-0.15366633
56	0x3d4f7552	0.050648995
57	0xbe2de876	-0.16983208
58	0xbe0f9bce	-0.14024279
59	0x3e2b74a2	0.1674371
60	0xbe4149c4	-0.18875796
61	0x3e3ee260	0.18641043
62	0x3e2d7e1a	0.16942635
63	0xbdc141c3	-0.09436371
64	0x3e2d859c	0.16945499
65	0x3d8405fa	0.064464524
66	0x3d25db1c	0.040492162
67	0x3e1cd1b1	0.15314366
68	0x3e048728	0.12942183
69	0xbea542f3	-0.3227764
70	0xbe749451	-0.23884703
71	0x3d5b54de	0.053547733
72	0xbce36c12	-0.027761493
73	0xbe46b084	-0.19403273
74	0x3bb33a5f	0.005469605
75	0x3d8bc47d	0.068245865
76	0x3e76ba03	0.24094395
77	0x3c686337	0.014183811
78	0xbda7dbe8	-0.08196241
79	0xbe02e07a	-0.12780944
80	0xbe0707cf	-0.13186572
81	0xbea73d26	-0.3266384
82	0xbe8ac95f	-0.2710676
83	0x3cf333f0	0.029687852
84	0x3de30be5	0.11086253
85	0x3d393b4b	0.04522256
86	0x3d47f695	0.048819143
87	0x3e24c139	0.16089334
88	0x3e289988	0.16464818
89	0x3d08dcf5	0.033413846
90	0x3e631d7d	0.22179218
91	0x3d8151c1	0.063144214
92	0xbe52aa9f	-0.205729
93	0x3d5cac4f	0.053875264
94	0xbcce8e11	-0.025214227
95	0xbe5f8b44	-0.2183047
96	0x3e89ba06	0.26899737
97	0xbe1a8cd6	-0.15092787
98	0xbe245e9e	-0.16051719
99	0x3e033add	0.12815423
100	0xbe2865b7	-0.16445051
101	0x3cfa291a	0.030537177
102	0x3ba94de2	0.005166755
103	0x3c1dcabb	0.009630854
104	0x3c460945	0.012087171
105	0x3d5634e6	0.05229654
106	0x3d1648c4	0.03669049
107	0xbd88b3cf	-0.06674921
108	0x3e08aa84	0.13346297
109	0x3d8908d0	0.06691134
110	0xbcaf257a	-0.021380175
111	0xbebc0f6c	-0.36730516
112	0xbe8086df	-0.25102898
113	0xbc344a9e	-0.011004118
114	0x3e62d1c0	0.22150326
115	0x3e35a4b9	0.17738618
116	0x3cc341b7	0.023835046
117	0x3d9ec770	0.077528834
118	0xbdd96b90	-0.10616219
119	0x3e047c1f	0.12937973
120	0xbdee7d08	-0.116449416
121	0xbdc40c01	-0.09572602
122	0x3d918741	0.07105876
123	0xbea9ab38	-0.33138442
124	0xbdd6b3e6	-0.10483532
125	0xbdc38559	-0.095469184
126	0xbd53cae2	-0.051707156
127	0x3cac1532	0.0210062
128	0xbd1615dd	-0.036641944
129	0xbd859946	-0.06523375
130	0x3e1a3f43	0.15063195
131	0x3dc846a3	0.09779098
132	0xbc92711d	-0.017876202
133	0x3cee2775	0.029071549
134	0x3dea8a86	0.114522025
135	0x3d21cd4a	0.03950242
136	0xbdf44a57	-0.11928242
137	0xbe975438	-0.2955644
138	0x3da97d8d	0.082759
139	0xbd6c1415	-0.05763634
140	0x3d193a05	0.037408847
141	0x3da6adcb	0.08138617
142	0x3e06b4f3	0.13154964
143	0x3dc17bec	0.09447464
144	0x3de37d58	0.11107892
145	0x3dacff0d	0.084470846
146	0xbdab9b1b	-0.083791934
147	0xbe16dedc	-0.14733452
148	0xbe1c846d	-0.15284891
149	0x3dfead8f	0.124354474
150	0xbe3ef933	-0.1864975
151	0x3e140480	0.14454842
152	0x3d1e5ccc	0.038662717
153	0x3d79977c	0.060935482
154	0x3dc0a11d	0.0940573
155	0xbe154777	-0.14578043
156	0xbde3a14a	-0.11114748
157	0x3e24c22e	0.16089699
158	0x3cacfa76	0.021115523
159	0xbe1e4df6	-0.15459427
160	0xbc5178f4	-0.012785185
161	0x3d5a8e8b	0.053358596
162	0x3d58d480	0.05293703
163	0x3e6c8ca0	0.23100519
164	0xbc9d3611	-0.01919082
165	0xbe1fa8c8	-0.15591729
166	0x3e268a66	0.16263732
167	0x3e5545eb	0.20827453
168	0xbe4393d2	-0.19099358
169	0xbe9ce4cc	-0.30643308
170	0xbdd53bb7	-0.1041178
171	0xbd5cf7cb	-0.05394725
172	0x3dc3f741	0.09568644
173	0x3e0e60fd	0.13904186
174	0x3d3ea7fc	0.04654692
175	0x3e008f12	0.12554577
176	0xbd8e4802	-0.06947328
177	0xbd5a4ef0	-0.053297937
178	0x3df99ed7	0.121884994
179	0xbd13ce77	-0.036085572
180	0x3e0141d3	0.12622766
181	0x3e0867bc	0.13320822
182	0xbe658adb	-0.2241625
183	0x3e4b49dd	0.19852395
184	0x3d8c063d	0.06837127
185	0xbe73cf10	-0.23809457
186	0x3d24a190	0.04019314
187	0x3c97f450	0.018549114
188	0xbeab27b1	-0.3342872
189	0xbd291a4d	-0.041284848
190	0xbe401a11	-0.18759944
191	0xbdd67a1b	-0.104725085
192	0x3db41344	0.08792737
193	0xbdd32fc4	-0.10311845
194	0xbe495bc6	-0.19663915
195	0x3e3a934c	0.18220252
196	0x3e8c25fb	0.27372727
197	0xbb37fad3	-0.0028073087
198	0x3d8de5e9	0.069286175
199	0x3d52766e	0.051382475
200	0xbe86f826	-0.26361197
201	0xbd1f6f0b	-0.03892426
202	0x3e1ce605	0.1532212
203	0xbe113c30	-0.14183116
204	0xbccce479	-0.025011288
205	0x3e83a820	0.25714207
206	0x3c7a4809	0.015275964
207	0x3dd06475	0.10175411
208	0x3e5463e1	0.20741226
209	0x3db10c13	0.08644881
210	0x3e1d7dfb	0.15380089
211	0xbc9968f9	-0.018726813
212	0x3d2b87a7	0.041877415
213	0xbe423574	-0.18965703
214	0xbe9f8f0b	-0.3116382
215	0xbea2ff40	-0.31835365
216	0x3e5b20dd	0.21399255
217	0xbdc9a576	-0.09846012
218	0xbecc4631	-0.39897302
219	0x3e5492d7	0.2075914
220	0x3dfabb11	0.12242711
221	0xbe8a8425	-0.27053943
222	0x3d9913ce	0.074744806
223	0x3dcdcb7d	0.10048578
224	0xbd25a7b2	-0.04044313
225	0xbe54aee9	-0.20769848
226	0x3ddcb772	0.10777177
227	0x3daffbb0	0.085929275
228	0x3d3562c7	0.044283655
229	0x3a2b7ece	0.00065420277
230	0x3d9c52d1	0.076329835
231	0xbe30a334	-0.17249757
232	0x3d3aa21c	0.045564756
233	0x3d5193a0	0.051166177
234	0xbc2cf958	-0.010557495
235	0xbd8be902	-0.06831552
236	0xbea86863	-0.3289214
237	0xbddaf011	-0.1069032
238	0xbe2fb6f7	-0.1715964
239	0x3d6c9651	0.05776054
240	0x3e3a5a63	0.18198542
241	0x3e12002d	0.1425788
242	0x3e777002	0.24163821
243	0xbeb44677	-0.3521001
244	0xbe05f2a3	-0.1308084
245	0xbbf2236a	-0.0073894756
246	0xbdb4d794	-0.08830181
247	0x3e8e6c31	0.27816918
248	0x3e555fea	0.2083737
249	0x3e4144ca	0.18873897
250	0x3d8ac8ee	0.067766055
251	0xbdcba58d	-0.09943686
252	0xbeb55a23	-0.3542033
253	0x3d04bdc7	0.03240755
254	0x3e799834	0.24374467
255	0xbe920191	-0.2851682

sequential/conv2d_1/Conv2D f4 [64, 3, 3, 32]
0	0xbd7fa4a6	-0.06241288
1	0xbd212012	-0.039337225
2	0xbe1f15e3	-0.15535693
3	0xbd6830b7	-0.056687083
4	0xbe1a33e4	-0.15058857
5	0xbebb68c6	-0.36603373
6	0x3da02462	0.078194395
7	0x3e0c1195	0.13678582
8	0xbd91ba61	-0.07115627
9	0xbd9d1ae4	-0.076711446
10	0xbe2a280d	-0.1661684
11	0xbd6f6453	-0.058445286
12	0xbdbf3aff	-0.093374245
13	0x3cc21613	0.023692166
14	0x3dcc85a6	0.09986429
15	0xbe58828e	-0.21143553
16	0xbd34208a	-0.043976344
17	0xbcb1c459	-0.021700071
18	0x3cdbf910	0.02685216
19	0x3da57a97	0.08080023
20	0xbe3c1108	-0.18365872
21	0xbcb49c51	-0.022047194
22	0xbca334d9	-0.01992266
23	0xbe3af83c	-0.18258756
24	0xbe235319	-0.15949668
25	0x3d32420c	0.04352002
26	0xbd973181	-0.07382489
27	0x3defa840	0.11702013
28	0x3dac3bc1	0.08409835
29	0xbddb07f5	-0.10694877
30	0xbe65cbe3	-0.22441058
31	0xbd92a9e3	-0.071613096
32	0xbdbeaa01	-0.093097694
33	0x3d61e853	0.055153202
34	0xbdeee013	-0.116638325
35	0xbd95f816	-0.07322709
36	0x3d6f240c	0.058383986
37	0xbe98b187	-0.29822943
38	0xbba4c6c2	-0.0050285766
39	0xbdb29174	-0.08719149
40	0xbb8ec669	-0.0043571484
41	0xbc907866	-0.017635535
42	0xbdb59e9d	-0.08868144
43	0x3d7a913e	0.06117367
44	0xbe005791	-0.12533404
45	0x3cc2bbb3	0.023771143
46	0x3dbdd3b0	0.09268892
47	0x3d69248a	0.056919612
48	0xbdc34aad	-0.09535728
49	0x3d80f992	0.06297602
50	0xbd2c58d7	-0.04207691
51	0x3c7a6e04	0.015285019
52	0xbd9cd1a7	-0.076571755
53	0x3c0b9281	0.008518816
54	0x3c938e58	0.01801221
55	0xbeae25b4	-0.3401314
56	0x3d4bc70b	0.04975037
57	0x3d850d87	0.06496721
58	0xbdb31171	-0.08743561
59	0xbcec3e37	-0.02883826
60	0xbdcde9a9	-0.10054333
61	0x3d86952c	0.06571421
62	0xbd48dc49	-0.049038205
63	0xbe27136a	-0.16316
64	0x3e14f5fa	0.14546958
65	0xbcb5cf28	-0.022193506
66	0xbe18f0ac	-0.14935559
67	0xbd83cc58	-0.0643546
68	0xbaefeb00	-0.0018304288
69	0xbe08411e	-0.1330609
70	0x3e01a5d5	0.12660916
71	0x3b7af586	0.0038293316
72	0x3e01fbb5	0.12693675
73	0x3e0df540	0.13863087
74	0xbc5fdd37	-0.013663582
75	0x3ce9b84f	0.028530268
76	0xbbc4f04f	-0.0060100923
77	0x3d703b41	0.05865026
78	0x3d0a585f	0.033775683
79	0x3debc7f8	0.115127504
80	0xbb89647b	-0.0041928864
81	0xbda113e9	-0.07865126
82	0xbdcbae71	-0.099453814
83	0x3bf2549f	0.0073953415
84	0x3d67f417	0.056629267
85	0x3d5ed5bf	0.054403063
86	0x3cd9a9b5	0.02657018
87	0x3e021537	0.12703405
88	0x3db053ec	0.08609757
89	0xbc8b21f8	-0.016983971
90	0x3e1723fd	0.14759822
91	0x3e01fb35	0.12693484
92	0x3d713bbe	0.058894865
93	0x3cfb23a6	0.030656647
94	0x3da21003	0.0791321
95	0x3d1b4d98	0.037915796
96	0xbca31d58	-0.019911453
97	0xbd92ae30	-0.0716213
98	0xbd959ab2	-0.073048964
99	0x3d1888ee	0.03723996
100	0xbde75666	-0.11295776
101	0xbd85769c	-0.065167636
102	0x3cc702c0	0.024293303
103	0x3d56968d	0.05238967
104	0x3d8e6242	0.06952335
105	0xbd4b8fde	-0.04969775
106	0xbaadf4e3	-0.0013271834
107	0xbd2b1618	-0.041769117
108	0xbc1376b0	-0.009000465
109	0xbda04599	-0.07825775
110	0x3dca1a5b	0.09868308
111	0xbdca8846	-0.09889273
112	0x3c8a4d95	0.016882697
113	0x3d35b8e4	0.04436578
114	0xbd732f9e	-0.059371583
115	0x3d085074	0.03327985
116	0xbc1320f8	-0.008980028
117	0xbdbb5780	-0.09147549
118	0xbc5d8213	-0.013519782
119	0xbda947a9	-0.08265621
120	0xbe33fbd2	-0.1757653
121	0x3d9a93bf	0.075477116
122	0xbe339839	-0.17538537
123	0xbd00f54b	-0.03148393
124	0x3dbb2c35	0.09139291
125	0xbdb2f828	-0.08738738
126	0xbddad563	-0.106852315
127	0xbde4e052	-0.11175598
128	0xbd240821	-0.040046815
129	0xbaa42df2	-0.00125259
130	0xbe90c9a4	-0.2827884
131	0x3d7f3616	0.06230744
132	0xbe74bc07	-0.23899852
133	0xbe61a95b	-0.2203726
134	0x3c73882a	0.014864007
135	0xbd58836d	-0.052859712
136	0xbdc516b1	-0.09623469
137	0xbd988780	-0.074477196
138	0xbe9935d2	-0.29923874
139	0xbd5f51a2	-0.05452121
140	0xbca0e241	-0.019639136
141	0xbd699a38	-0.05703184
142	0xbd06e17c	-0.032929882
143	0xbccb862e	-0.024844255
144	0xbd8467d5	-0.06465117
145	0x3d6513ab	0.05592696
146	0xbca3f8b4	-0.020016052
147	0x3e021828	0.12704527
148	0xbe55f133	-0.20892791
149	0xbe8b777e	-0.27239603
150	0x3c9b4d43	0.01895774
151	0xbdace0eb	-0.08441337
152	0xbdaf1605	-0.08549122
153	0x3d6f6328	0.058444172
154	0xbe0ebf6e	-0.13940212
155	0xbce3c7f9	-0.027805315
156	0xbc455b40	-0.0120456815
157	0x3ce9d407	0.028543485
158	0x3bdcdff5	0.006740565
159	0xbe1704ff	-0.14748
160	0x3d0ad7dd	0.03389727
161	0xbd8b46d9	-0.068006225
162	0xbdc1596b	-0.09440883
163	0xbd5155fb	-0.051107388
164	0x3d22e198	0.039765924
165	0xbd49cfa5	-0.04927029
166	0xbe87c98a	-0.2652095
167	0xbdc0e349	-0.09418351
168	0x3d23460b	0.03986172
169	0xbd14044d	-0.036136914
170	0x3d4c7e19	0.049924944
171	0xbc548972	-0.012972223
172	0xbb7c78e6	-0.003852421
173	0x3c3317db	0.010930981
174	0xbc0eb7c6	-0.008710807
175	0x3de39d22	0.11113955
176	0xbe2b9ba7	-0.16758595
177	0xbd528e60	-0.05140531
178	0xbdfb5253	-0.122715615
179	0xbd34919d	-0.04408418
180	0xbd02ade3	-0.031904113
181	0xb9deb552	-0.00042478234
182	0x3dec48f4	0.11537352
183	0x3c7da795	0.015481849
184	0x3e0407a4	0.1289354
185	0xbc05e31c	-0.008171823
186	0xbdaf6913	-0.08564963
187	0x3d166514	0.03671749
188	0xbeb134be	-0.34610552
189	0x3e302831	0.17202832
190	0x3dc4c0b5	0.096070684
191	0xbe9ff961	-0.31244949
192	0xbd5122e4	-0.051058665
193	0x3d3daf91	0.04631001
194	0xbd330078	-0.04370162
195	0xbd738141	-0.059449438
196	0xbe657ccd	-0.22410889
197	0x3bab2c93	0.0052238195
198	0xbd86ecf6	-0.065881655
199	0xbcee825f	-0.0291149
200	0xbdb543c6	-0.088508174
201	0xbcd8c45f	-0.026460825
202	0xbd02f960	-0.031976104
203	0xbd84df5b	-0.06487914
204	0x3bd46499	0.0064817187
205	0x3c84912e	0.016182508
206	0xbd725028	-0.059158474
207	0xbe347d86	-0.17626008
208	0x3d433c05	0.04766466
209	0xbb476055	-0.0030422409
210	0x3ca7f1cc	0.02050104
211	0x3d1b408a	0.037903346
212	0x3e17d1ce	0.14826128
213	0xbe67e816	-0.22647128
214	0xbd938c9e	-0.07204555
215	0x3d127f0b	0.03576569
216	0xbd8eed6d	-0.06978879
217	0x3da2c515	0.07947747
218	0xbe51f660	-0.20504141
219	0x3d445740	0.04793477
220	0xbc98d13a	-0.018654454
221	0xbd6fad5f	-0.05851495
222	0x3d8431a0	0.06454778
223	0xbb87c406	-0.004143241
224	0xbd5f32ed	-0.054491926
225	0x3cd03ece	0.025420573
226	0xbd2d0a9b	-0.042246442
227	0x3e12126d	0.14264841
228	0xbe816284	-0.25270474
229	0xbe4d81e0	-0.20069075
230	0xbdedfafb	-0.11620136
231	0x3dd1a8e9	0.10237295
232	0xbc6dde86	-0.014518386
233	0xbe3a03f6	-0.18165573
234	0xbe088b4a	-0.13334385
235	0x3de80a74	0.11330119
236	0xbef5fbee	-0.4804377
237	0xbc8008f8	-0.015629277
238	0x3db6ab22	0.0891936
239	0xbc881181	-0.016609909
240	0xbb1eb9bf	-0.00242196
241	0x3df5d083	0.12002661
242	0x3d5a2179	0.05325458
243	0x3da19982	0.078906074
244	0xbd8f5de7	-0.07000332
245	0xbe72fb14	-0.23728591
246	0x3e2297ac	0.1587817
247	0xbccd167f	-0.025035141
248	0x3b61e5ae	0.0034469175
249	0x3c887573	0.016657567
250	0xbea32ff5	-0.31872526
251	0xbd50e193	-0.050996374
252	0x3db7a943	0.08967831
253	0x3dbf820b	0.093509756
254	0xbd389799	-0.04506645
255	0xbe941236	-0.28920144

sequential/conv2d_2/Conv2D f4 [64, 3, 3, 64]
0	0xbd3093d0	-0.043109715
1	0xbd9e4c0b	-0.07729348
2	0xbd4e8547	-0.050420072
3	0xbe0cf93a	-0.13766947
4	0x3da09328	0.07840568
5	0x3d612cde	0.05497443
6	0xbd671ae9	-0.056422148
7	0xbd728d41	-0.05921674
8	0x3b12b6ac	0.0022386713
9	0x3d219b3b	0.03945468
10	0xbe2a17de	-0.16610667
11	0x3db506c1	0.08839179
12	0xbd7b22f6	-0.06131264
13	0xbd82ceda	-0.0638711
14	0xbdce7f13	-0.10082831
15	0x3e050ad3	0.1299241
16	0xbdb99508	-0.090616286
17	0xbd8a4962	-0.06752278
18	0x3cd6851a	0.026186515
19	0x3d46511a	0.04841719
20	0xbe107be8	-0.14109766
21	0x3d7676a2	0.06017173
22	0x3cf361c5	0.029709706
23	0xbe532b61	-0.20622016
24	0xbdb5ac27	-0.08870726
25	0x3d2dbb4b	0.042414945
26	0xbcdefbd7	-0.027219696
27	0xbd1cfa22	-0.038324483
28	0xbc76c505	-0.015061622
29	0xbdbaa79f	-0.091140024
30	0xbcf5235e	-0.029924091
31	0x3dacc682	0.084363
32	0x3d3536e6	0.04424181
33	0x3d3a99ea	0.04555694
34	0xbe937708	-0.2880175
35	0x3d0f9028	0.035049587
36	0xbe428606	-0.18996438
37	0x3d9aac67	0.075524144
38	0x3e349dfb	0.1763839
39	0xbc48c0b4	-0.012252975
40	0x3d434a76	0.047678433
41	0x3d24787d	0.04015397
42	0xbb5eec69	-0.0034015423
43	0x3db52605	0.08845142
44	0x3c3acc16	0.011401197
45	0xbd377689	-0.04479078
46	0x3e0c8729	0.13723435
47	0x3e1c8c20	0.15287828
48	0xbdf6ce22	-0.120510355
49	0xbc6a6cfe	-0.014308212
50	0xbe7800f3	-0.24219112
51	0x3dff2f29	0.12460167
52	0xbd8e4ee3	-0.0694864
53	0x3c681ced	0.014167053
54	0xbbbe57b6	-0.005808796
55	0xbdec3b7a	-0.11534782
56	0xb9c2c001	-0.00037145618
57	0x3d8ae7a8	0.06782466
58	0x3da1a928	0.07893592
59	0xbdca17b6	-0.09867804
60	0x3cfcd695	0.03086404
61	0x3db7c3cd	0.08972893
62	0xbce5df62	-0.028060619
63	0xbe0ea398	-0.13929594
64	0xbe36dc66	-0.17857513
65	0xbd2ae64e	-0.041723542
66	0xbde0801a	-0.109619334
67	0xbc6706ef	-0.014100774
68	0xbd68a756	-0.05680021
69	0x3d8395c4	0.0642505
70	0x3da31fb5	0.07965032
71	0xbdccd7c9	-0.10002095
72	0xbd2fe59c	-0.042943582
73	0x3d31460c	0.043279693
74	0x3d3b9d1a	0.04580412
75	0xbdd9b38a	-0.106299475
76	0xbe424dde	-0.18975016
77	0xbdae259c	-0.08503267
78	0xbe2506fc	-0.16115946
79	0x3c8613ec	0.016366921
80	0xbd132947	-0.035928037
81	0xbc6ec681	-0.014573694
82	0xbda3c5b4	-0.07996693
83	0x3d9f8e5a	0.07790823
84	0x3d055465	0.032551188
85	0xbe7fbac2	-0.24973586
86	0xbe2c5856	-0.16830572
87	0xbd40139a	-0.046893694
88	0xbadf1227	-0.001701896
89	0xbd3c4859	-0.045967434
90	0xbe4164ab	-0.18886058
91	0x3dc0c2a8	0.09412128
92	0xbb10e07d	-0.0022106462
93	0xbdcd6fe2	-0.100311056
94	0xbc1d1fc7	-0.009590096
95	0x3da5dbb3	0.08098545
96	0x3c07cb80	0.008288264
97	0xbdd7226c	-0.10504612
98	0xbdbdd96d	-0.09269986
99	0xbc9cc1cd	-0.01913538
100	0xbe1eff14	-0.15526992
101	0xbcacab0f	-0.02107766
102	0xbd1e0239	-0.03857634
103	0xbdfeb801	-0.1243744
104	0xbd6c443a	-0.057682253
105	0x3d3ee47c	0.04660462
106	0x3d0072a6	0.031359337
107	0xbe0b1d33	-0.13585357
108	0x3c3ef274	0.011654485
109	0x3cf33465	0.02968807
110	0xbe416838	-0.18887413
111	0x3dab3a09	0.08360679
112	0xbdbf96e0	-0.09354949
113	0xbd17e127	-0.037079956
114	0xbca6e8c6	-0.020374667
115	0xbd7171e9	-0.058946524
116	0x3b2fc07d	0.0026817613
117	0x3cdfb507	0.027308
118	0xbdadeade	-0.08492063
119	0xbb768426	-0.0037615388
120	0x3d9b145b	0.07572242
121	0x3d8e2cce	0.069421396
122	0xbd04f09b	-0.03245602
123	0xbc30113e	-0.010746298
124	0xbd869bfa	-0.06572719
125	0x3d45a4ac	0.048252746
126	0xbe064822	-0.13113454
127	0xbe2b0803	-0.16702275
128	0xbdd24b28	-0.10268241
129	0x3cf5243f	0.02992451
130	0xbe92357b	-0.28556427
131	0x3e14ff86	0.145506
132	0xbe49218d	-0.19641705
133	0xbd54ab7c	-0.051921353
134	0xbcbf4021	-0.023346009
135	0x3aa24e90	0.0012383033
136	0xbd2e8bc3	-0.042613756
137	0xbd51f265	-0.051256556
138	0x3e6839dd	0.22678323
139	0xbc89adc5	-0.016806493
140	0xbdc4238a	-0.09577091
141	0x3d0db111	0.03459269
142	0x3d9e8590	0.07740319
143	0x3c99da29	0.018780785
144	0x3ce8e291	0.028428348
145	0x3da2e8fc	0.079545945
146	0xbe5d7632	-0.21627119
147	0xbd0bab0c	-0.03409867
148	0x3d890f0f	0.06692325
149	0xbd3fbdf9	-0.04681203
150	0xbe690c57	-0.22758614
151	0xbd09d5b3	-0.033651065
152	0x3db3d952	0.08781685
153	0xbd4d60be	-0.05014109
154	0x3d41f723	0.04735483
155	0x3d90fcbb	0.070794545
156	0xbdf6869a	-0.12037392
157	0x3c91ed9d	0.017813498
158	0x3c48362c	0.012219947
159	0xbcbcce9a	-0.023047734
160	0x3cf88e3c	0.03034126
161	0x3ddf068d	0.10889921
162	0x3b09787e	0.002097636
163	0x3d7c27f9	0.06156156
164	0x3dff343e	0.12461136
165	0x3dc54f64	0.09634283
166	0xbde1b5cc	-0.11021003
167	0xbd260f44	-0.040541902
168	0xbe557340	-0.20844746
169	0xbd8b05a6	-0.06788187
170	0xbc4889ff	-0.012239932
171	0x3df39b15	0.11894814
172	0x3deed139	0.11661
173	0x3ca1f8f8	0.019772038
174	0xbc1490c9	-0.009067723
175	0x3da4dbfb	0.080497704
176	0xbd4b40d5	-0.049622376
177	0x3e2311a1	0.15924694
178	0x3dbebefe	0.093137726
179	0xbe45edd9	-0.19329013
180	0x3d72a0e1	0.059235457
181	0xbdee0fb9	-0.116240926
182	0x3d3cbd21	0.046078805
183	0x3e18b6fc	0.14913553
184	0x3e2be2ef	0.16785787
185	0x3db718b8	0.089402616
186	0x3e25a30b	0.16175477
187	0x3c5fc371	0.013657437
188	0xbdcac537	-0.09900897
189	0x3d3596e1	0.044333342
190	0xbdfb0c07	-0.122581534
191	0x3d9d3db5	0.07677785
192	0x3ccbe835	0.024890998
193	0x3d2f74ec	0.042836115
194	0xbdaf7ec0	-0.085690975
195	0x3c33de35	0.010978271
196	0xbd86d3c1	-0.065833576
197	0xbd751ce5	-0.05984201
198	0xbd106005	-0.03524782
199	0x3e02a0c1	0.12756635
200	0xbe8017d2	-0.25018173
201	0xbceaf3f0	-0.028680772
202	0x3ccba782	0.024860147
203	0x3e4dd1bb	0.20099537
204	0x3d4b8e5f	0.049696323
205	0x3df16a1e	0.11787818
206	0x3dafc66c	0.08582768
207	0x3df2d4f9	0.118570276
208	0x3d5b3619	0.05351839
209	0xbe8eb279	-0.2787054
210	0x3b9bc291	0.0047534187
211	0xbc8f4c43	-0.01749242
212	0xbd4416ab	-0.04787318
213	0xbe6c6d64	-0.23088604
214	0xbe3b7196	-0.18305048
215	0x3e0b47ad	0.13601561
216	0xbe066bfb	-0.13127129
217	0xbe892a10	-0.26789904
218	0xbe22f4fa	-0.15913764
219	0x3e6f22a8	0.23353064
220	0xbd5c5aab	-0.053797405
221	0x3e297b94	0.16551048
222	0xbd9cca39	-0.076557584
223	0x3d8879df	0.0666387
224	0xbe3907b6	-0.18069348
225	0xbdd5d51b	-0.10441037
226	0xbea147b8	-0.3150003
227	0xbd75a451	-0.059971157
228	0x3d336cbd	0.043804873
229	0x3d9b7537	0.07590716
230	0x3d457109	0.0482035
231	0xbda5b786	-0.08091645
232	0x3d442243	0.047884237
233	0xbdd6134f	-0.104529016
234	0xbe25ab5a	-0.16178647
235	0xbde79d6d	-0.113093235
236	0xbde01f3f	-0.1094346
237	0xbc287915	-0.010282774
238	0x3e9543b5	0.2915322
239	0x3d2464fa	0.04013536
240	0x3e1fe861	0.1561599
241	0xbdb84898	-0.08998221
242	0xbe466a54	-0.19376498
243	0xbd0368b6	-0.032082282
244	0xbe041eec	-0.12902421
245	0x3da1f272	0.07907571
246	0xbdd70e8d	-0.10500822
247	0x3d96816b	0.07348903
248	0x3e1c3947	0.15256225
249	0xbda4ea15	-0.0805246
250	0x3db0e2df	0.08637022
251	0xbe01cac5	-0.12675007
252	0x3d5af5cd	0.05345707
253	0xbcfcdee3	-0.030868
254	0xbc3a593e	-0.011373816
255	0x3dfc2e9d	0.12313578
