fashion/app/src/main/assets/keras_model_cnn.tflite (tflite, 377096 bytes, 10 tensors)

sequential/dense/BiasAdd/ReadVariableOp f4 [64]
0.07161559 0.03480241 0.035189074 0.11957248 0.100022815 -0.035957184 0.019603286 -0.04631531
0.048557412 0.112697616 -0.04680498 0.03545465 0.05555316 -0.031762272 0.07698663 -0.057100244
0.13049404 0.066387914 0.010618302 0.015316606 -0.052409034 -0.039943844 0.15242387 -0.028299939
0.09853189 -0.0017646931 0.052921098 0.008886662 -0.019621003 0.056948896 -0.02793662 -0.03632882
-0.018295614 -0.041900262 0.04815071 -0.10216311 -0.09226651 0.005074407 -0.02735731 -0.046339802
0.059723206 -0.099969305 0.09178155 0.08258347 0.019020494 -0.050783075 -0.072263904 0.1361795
-0.0745669 -0.025345152 0.04956814 -0.022270348 0.13459694 -0.05900905 0.14773054 0.10223966
-0.03364606 -0.021008525 0.023077078 -0.03614927 -0.07121221 0.06512994 0.14114803 0.0130067915
00000000: 32ab 923d f98c 0e3d 6b22 103d 6be2 f43d
00000010: c3d8 cc3d d747 13bd 1297 a03c 1fb5 3dbd
00000020: 23e4 463d 02ce e63d 94b6 3fbd e538 113d
00000030: b68b 633d 2819 02bd 2bab 9d3d f2e1 69bd
00000040: 3ba0 053e 63f6 873d 63f8 2d3c 80f2 7a3c
00000050: dbaa 56bd 289c 23bd 0115 1c3e 46d5 e7bc
00000060: 16cb c93d 464d e7ba cbc3 583d 5d99 113c
00000070: 3abc a0bc 3f43 693d 57db e4bc 87cd 14bd
00000080: afe0 95bc 9c9f 2bbd ae39 453d e53a d1bd
00000090: 39f6 bcbd 3647 a63b 701c e0bc cece 3dbd
000000a0: 52a0 743d b5bc ccbd f7f7 bb3d 8621 a93d
000000b0: ded0 9b3c ea01 50bd 19ff 93bd a472 0b3e
000000c0: 88b6 98bd a3a0 cfbc f607 4b3d 4e70 b6bc
000000d0: c8d3 093e 79b3 71bd ad46 173e 0763 d13d
000000e0: 73d0 09bd 121a acbc 240c bd3c 4211 14bd
000000f0: b5d7 91bd d962 853d 1c89 103e 701a 553c

sequential/dense_1/BiasAdd/ReadVariableOp f4 [10]
-0.009726002 -0.076720566 -0.0033168655 0.06697965 -0.1288469 -0.11383905 0.12813844 0.050810006
0.05384465 -0.043354135
00000000: cf59 1fbc ac1f 9dbd c55f 59bb a02c 893d
00000010: 71f0 03be 7324 e9bd b936 033e 271e 503d
00000020: 358c 5c3d 1b94 31bd

sequential/conv2d/BiasAdd/ReadVariableOp f4 [32]
-0.023828084 -0.010329161 0.18619946 -0.0028012046 0.16316833 -0.075518 0.13434313 -0.05758138
-0.00025895078 -0.001929622 -0.012235922 -0.0014315841 -0.003789842 0.0039298525 -0.012911083 0.012188093
0.033605557 0.003596636 0.122745976 -0.07701257 -0.0002513495 0.09359786 0.0022910002 -0.0066052666
-0.0036107863 0.0058667194 0.011510007 -0.022923866 0.020567073 -0.004295883 0.00805554 -0.006276006
00000000: 1d33 c3bc a43b 29bc 12ab 3e3e 6a94 37bb
00000010: 9915 273e 2ea9 9abd 3f91 093e 74da 6bbd
00000020: c9c3 87b9 5feb fcba 2d79 48bc fea3 bbba
00000030: ff5e 78bb fec5 803b 0289 53bc 91b0 473c
00000040: fba5 093d 8ab5 6b3b 3e62 fb3d c4b8 9dbd
00000050: 8fc7 83b9 3cb0 bf3d 9b24 163b fe70 d8bb
00000060: f1a2 6cbb 9c3d c03b 7894 3c3c d5ca bbbc
00000070: 477c a83c 7ac4 8cbb 62fb 033c f4a6 cdbb

sequential/conv2d_2/BiasAdd/ReadVariableOp f4 [64]
0.10202048 -0.008953591 0.027438223 0.1137136 0.11769473 0.018327517 0.0389655 0.08327008
0.04867793 0.19860956 -0.0049283425 0.07461747 0.04441852 -0.015741574 -0.0507232 0.036353312
0.06922437 0.0151375495 0.06526836 0.022296418 0.08589889 -0.028887928 0.04048094 0.13838024
0.14877121 0.13963749 0.017517442 0.014116382 -0.018405404 -0.08945544 0.057708524 0.05782104
0.06579546 0.028667802 0.081638925 0.13493808 -0.033793647 0.09553131 0.16611306 -0.17124744
0.0010658095 -0.017135376 0.17835967 0.06261473 0.09666091 -0.008768416 0.091742866 -0.009721913
0.037468273 0.15781341 -0.019288097 0.019928124 0.10978188 0.11562811 -0.009732322 0.10709068
-0.0415697 0.09056371 0.043628912 0.0077884234 0.09702385 -0.034366652 0.21947555 -0.025360882
00000000: 1df0 d03d 15b2 12bc 20c6 e03c ade2 e83d
00000010: ef09 f13d 9723 963c 4a9a 1f3d 8189 aa3d
00000020: 8262 473d 4e60 4b3e ef7d a1bb 0bd1 983d
00000030: 32f0 353d 79f4 80bc 21c3 4fbd 36e7 143d
00000040: 82c5 8d3d 7c03 783c 6bab 853d faa6 b63c
00000050: c2eb af3d 60a6 ecbc 58cf 253d 8db3 0d3e
00000060: 7b57 183e 21fd 0e3e bd80 8f3c 6648 673c
00000070: eec6 96bc 6a34 b7bd c65f 6c3d c1d5 6c3d
00000080: c5bf 863d bdd8 ea3c 4f32 a73d 352d 0a3e
00000090: 356b 0abd eba5 c33d 8b19 2a3e 7d5b 2fbe
000000a0: a2b2 8b3a 7d5f 8cbc eba3 363e 273c 803d
000000b0: 28f6 c53d 67a9 0fbc afe3 bb3d a948 1fbc
000000c0: 5578 193d d799 213e 1202 9ebc 4e40 a33c
000000d0: 53d5 e03d 6ece ec3d 5174 1fbc 5c52 db3d
000000e0: fd44 2abd 7779 b93d 3bb4 323d 0836 ff3b
000000f0: 71b4 c63d 0cc4 0cbd 33be 603e a0c1 cfbc

sequential/conv2d_1/BiasAdd/ReadVariableOp f4 [64]
-0.035987016 0.22386302 0.011316885 0.035043597 0.032502133 -0.054036323 0.112829424 0.028615562
-0.012592252 -0.011969896 -0.055890147 0.3133402 -0.03782628 0.015815089 -0.008044107 -0.0317232
-0.007267806 -0.16997424 -0.08210179 -0.061328497 0.07313056 0.15349029 -0.097697124 0.031263888
-0.017624399 0.22430077 -0.032799028 -0.026713282 0.022433503 -0.032526765 -0.017707173 -0.13528536
-0.0038475802 -0.12240831 -0.077640645 -0.015841676 0.15349345 0.031869136 0.001109417 -0.0074441717
0.028818324 -0.021390546 0.13222694 -0.024060154 0.085082285 0.16503121 -0.11000288 -0.074644074
-0.10314705 -0.039076574 -0.20167977 0.043032505 0.05540917 0.006192798 -0.02448613 -0.1258417
0.036704358 -0.043154117 -0.028881699 0.06350331 -0.032004178 -0.034060962 0.011419502 -0.10742349
00000000: 1f67 13bd 593c 653e 756a 393c e089 0f3d
00000010: f520 053d 3155 5dbd 1d13 e73d 2f6b ea3c
00000020: bc4f 4ebc 621d 44bc 11ed 64bd 206e a03e
00000030: bbef 1abd a58e 813c 6ecb 03bc 30f0 01bd
00000040: c726 eebb ba0d 2ebe fc24 a8bd 9733 7bbd
00000050: 7ac5 953d 8f2c 1d3e 6e15 c8bd 900e 003d
00000060: 0b61 90bc 1aaf 653e 4658 06bd d0d5 dabc
00000070: 77c6 b73c c93a 05bd a20e 91bc 3f88 0abe
00000080: af27 7cbb 35b1 fabd 0f02 9fbd 67c6 81bc
00000090: 632d 1d3e 3689 023d db69 913a 3dee f3bb
000000a0: 6814 ec3c 3a3b afbc 8066 073e cd19 c5bc
000000b0: 9f3f ae3d f1fd 283e 3149 e1bd fede 98bd
000000c0: c33e d3bd c20e 20bd 2485 4ebe da42 303d
000000d0: baf4 623d f4ec ca3b 2397 c8bc a6dc 00be
000000e0: 4f57 163d 5fc2 30bd 5099 ecbc 060e 823d
000000f0: d016 03bd 8283 0bbd dd18 3b3c d900 dcbd

sequential/dense/MatMul f4 [64, 576]
-0.018436756 0.06698171 -0.07928579 -0.09629291 -0.14187878 -0.034173597 0.08579363 -0.08452193
-0.027696647 0.023482092 -0.03651692 -0.23781988 0.14110424 0.098013364 -0.043047912 -0.0024667224
0.10732617 -0.015851963 0.00046296715 -0.04171183 -0.102402 -0.065886244 -0.031920414 0.14135177
-0.059042066 -0.014194036 -0.09857049 0.08131158 0.07053562 0.09407705 0.087047055 0.24248
-0.059563182 0.114191934 0.013720017 -0.021249553 -0.03518081 0.052485447 0.039368846 0.01659724
-0.15515932 -0.05319278 0.04197268 0.055517297 -0.032152206 0.015119423 -0.07162989 -0.0238671
-0.08602689 0.08332384 0.032057676 -0.005164774 -0.00041766747 0.24151589 -0.07358641 0.08171673
-0.041984953 -0.029448306 -0.046485543 0.051198453 -0.04965717 -0.15734868 0.11784179 -0.007457409
-0.037078664 -0.043335102 0.097795196 0.039815996 0.086288445 0.09139647 -0.018037086 -0.09563471
0.04094577 -0.035554826 0.08823128 -0.06609402 0.066564605 -0.12220709 -0.00653005 -0.13503341
-0.14128153 0.17633356 -0.12109897 -0.06538085 0.09066779 0.009043373 0.052557718 -0.057427045
0.0011513339 0.09305699 -0.0025345488 -0.16436021 0.06989379 0.09017358 0.12863246 -0.115977794
0.054079935 0.2292713 0.12959778 0.0099273035 -0.026976772 0.05631442 -0.12039167 0.024256779
0.07204555 0.19912751 0.005951987 0.004432113 -0.19893731 0.072917305 0.2495314 0.048176836
-0.022011263 -0.14357662 0.1867055 -0.053331096 -0.082223475 0.027928311 -0.025621803 0.0195018
0.055789415 -0.20679073 -0.007220905 0.10628375 -0.05010203 0.13464218 0.018186789 -0.077300556
0.014749165 -0.096647665 0.14148025 -0.037930287 -0.08365429 -0.11665423 0.025239952 0.033291016
-0.017998746 0.3680285 0.09720025 -0.16240914 -0.00555236 0.026920618 0.18428065 0.09033586
0.0047461498 0.016724255 0.0037613178 -0.098389 0.14011708 -0.06603806 -0.06840137 0.062582664
0.20249084 -0.13573644 -0.13052966 0.13139328 -0.052685216 -0.06239346 -0.032630537 0.049169093
0.11991877 -0.035436284 -0.071764715 0.04885084 0.07726421 -0.24412996 -0.043871064 -0.13565685
0.05615496 0.03829469 -0.008265546 -0.07470494 0.2330686 -0.0043271706 0.10647548 0.052454278
0.17034182 0.12613656 -0.0735246 -0.017639896 0.10581387 0.09782028 0.030497361 0.29274467
-0.027975863 0.16307417 0.060844343 -0.21503627 0.14634779 -0.11947557 0.260827 0.10124332
-0.008835215 -0.066445835 -0.26550862 0.033398952 0.05519458 -0.111323535 0.040472984 0.14327256
-0.0819922 0.12556414 0.1284589 0.07234471 -0.022859344 0.02140589 0.08096344 0.010754782
0.21000072 -0.081858434 -0.16646172 -0.13358052 0.038598824 0.001568946 0.040046066 0.013827726
0.11224227 0.15064049 -0.0050236816 0.033549555 0.066547066 0.027871225 0.25486505 0.21814843
0.05833982 0.11204412 -0.016544824 -0.010025466 0.020480169 0.1919267 0.20811847 0.21194692
-0.10567417 0.08704241 0.2610865 -0.005223894 -0.05282885 -0.03180072 0.05712875 -0.0376564
0.030099515 -0.13337979 -0.04254499 0.017707137 0.014185977 0.1383562 0.026804995 0.017038438
0.002251438 0.07005458 0.17387299 -0.003062838 0.11420094 0.2327685 -0.12732424 0.06297324
00000000: ae08 97bc b52d 893d 9760 a2bd 3835 c5bd
00000010: ac48 11be 9df9 0bbd 92b4 af3d d519 adbd
00000020: 14e4 e2bc 845d c03c c492 15bd 0e87 73be
00000030: a17d 103e 3bbb c83d 0253 30bd bca8 21bb
00000040: d3cd db3d fadb 81bc 66ba f239 06da 2abd
00000050: 24b8 d1bd 5eef 86bd fbbe 02bd 85be 103e
00000060: 18d6 71bd 1a8e 68bc 53df c9bd b086 a63d
00000070: fb74 903d 78ab c03d ba45 b23d ad4c 783e
00000080: 86f8 73bd 76dd e93d ecc9 603c 8b13 aebc
00000090: c119 10bd fbfa 563d 3a41 213d eff6 873c
000000a0: 16e2 1ebe ace0 59bd 8beb 2b3d 1b66 633d
000000b0: 08b2 03bd 75b7 773c b1b2 92bd f084 c3bc
000000c0: de2e b0bd b0a5 aa3d e94e 033d 443d a9bb
000000d0: 61fa dab9 f14f 773e 79b4 96bd 1a5b a73d
000000e0: 6af8 2bbd 933d f1bc a067 3ebd 78b5 513d
000000f0: 5165 4bbd 0320 21be 0957 f13d 485d f4bb
00000100: ccdf 17bd 2680 31bd d948 c83d 1916 233d
00000110: ffb7 b03d 132e bb3d 83c2 93bc 21dc c3bd
00000120: c0b6 273d f0a1 11bd 9ab2 b43d 4d5c 87bd
00000130: 0653 883d b647 fabd 08fa d5bb 3346 0abe
00000140: 1bac 10be c990 343e bd02 f8bd 65e6 85bd
00000150: 09b0 b93d a82a 143c c346 573d 9f38 6bbd
00000160: 5be8 963a aa94 be3d ac1a 26bb 0b4e 28be
00000170: 7a24 8f3d edac b83d 3ab8 033e c485 edbd
00000180: ec82 5d3d 18c6 6a3e 48b5 043e 21a6 223c
00000190: 64fe dcbc f3a9 663d e88f f6bd 27b6 c63c
000001a0: 9e8c 933d 15e8 4b3e e308 c33b 423b 913b
000001b0: 39b6 4bbe ab55 953d 2985 7f3e 1355 453d
000001c0: f750 b4bc c005 13be ba2f 3f3e b571 5abd
000001d0: c864 a8bd eac9 e43c d1e4 d1bc 3dc2 9f3c
000001e0: 7183 643d f3c0 53be 579d ecbb 4bab d93d
000001f0: c937 4dbd a4df 093e 76fc 943c c14f 9ebd
00000200: 7ba6 713c 36ef c5bd 33e0 103e ca5c 1bbd
00000210: f152 abbd 6ae8 eebd 04c4 ce3c 295c 083d
00000220: 1b72 93bc 3b6e bc3e ed10 c73d 954e 26be
00000230: 92f0 b5bb a188 dc3c 11b4 3c3e 0202 b93d
00000240: 9785 9b3b 4e01 893c 7180 763b 2c80 c9bd
00000250: da7a 0f3e f63e 87bd 0416 8cbd 572b 803d
00000260: c259 4f3e 7efe 0abe 91a9 05be f68b 063e
00000270: 74cc 57bd 4990 7fbd 99a7 05bd 8865 493d
00000280: f997 f53d a325 11bd 61f9 92bd d217 483d
00000290: b33c 9e3d 34fd 79be 25b2 33bd a1e9 0abe
000002a0: be02 663d e5da 1c3d 366c 07bc e7fe 98bd
000002b0: 89a9 6e3e f0ca 8dbb d10f da3d 4cda 563d
000002c0: 166e 2e3e f129 013e 1194 96bd 8b81 90bc
000002d0: f1b4 d83d 0056 c83d 9ad5 f93c a1e2 953e
000002e0: a32d e5bc eafc 263e eb37 793d 7832 5cbe
000002f0: 32dc 153e 9caf f4bd 1e8b 853e a858 cf3d
00000300: 94c1 10bc c114 88bd bff0 87be 57cd 083d
00000310: b613 623d 98fd e3bd 00c7 253d 0bb6 123e
00000320: 87eb a7bd e393 003e bb8a 033e 7729 943d
00000330: 8543 bbbc 685b af3c 29d0 a53d d334 303c
00000340: 6e0a 573e 65a5 a7bd f174 2abe 55c9 08be
00000350: cd19 1e3d 18a5 cd3a 5807 243d b08d 623c
00000360: 46df e53d 8041 1a3e b29d a4bb 426b 093d
00000370: d449 883d 3252 e43c ac7d 823e 4d62 5f3e
00000380: bcf5 6e3d 6377 e53d 0389 87bc da41 24bc
00000390: 07c6 a73c 6f88 443e 021d 553e 9d08 593e
000003a0: b36b d8bd 4b43 b23d 21ad 853e 332d abbb
000003b0: 1063 58bd 7941 02bd d6ff 693d 993d 1abd
000003c0: 4293 f63c b694 08be a843 2ebd 8f0e 913c
000003d0: 4d6c 683c 3fad 0d3e 2696 db3c 3294 8b3c
000003e0: dd8c 133b c778 8f3d c30b 323e e5b9 48bb
000003f0: 2fe2 e93d de5a 6e3e 4961 02be 1df8 803d

sequential/dense_1/MatMul f4 [10, 64]
-0.03418103 0.013874421 -0.041166548 0.036185224 0.083688825 -0.42818385 -0.3446424 -0.35097346
-0.35016698 -0.212583 0.10939343 -0.48424515 -0.22302867 -0.25059158 0.11257891 -0.20664975
0.053332463 0.26066697 0.04176226 0.1458651 0.08588808 -0.22750817 0.04012015 0.16523622
0.22212203 -0.30701324 0.27509302 0.058493536 -0.27106106 -0.3281653 -0.13204055 0.0050703767
0.23039457 -0.11996364 0.2865989 0.096908905 0.37914357 0.20990193 -0.17586297 0.079834834
0.06849558 0.01094974 -0.13147078 0.0671529 -0.07038555 0.26589373 0.24947098 0.1641347
0.07323972 -0.07346813 -0.047277562 -0.21167642 0.16038796 0.18619889 -0.1773679 0.08634781
-0.2422328 -0.3226054 0.091692746 -0.00721368 0.09670497 -0.18196689 -0.043296214 -0.091109335
-0.2991254 -0.48828945 -0.40298986 -0.6466891 -0.15927084 -0.4899989 -0.0439243 -0.06991384
0.21287161 0.16794915 0.018544208 -0.46908784 0.035147715 -0.12919748 -0.0010751719 -0.034008063
-0.5235619 -0.3393829 -0.09833149 -0.20788029 -0.20055793 -0.34544227 0.08712803 -0.28487474
-0.055495825 0.16352269 -0.097216696 0.1152506 -0.28089705 0.012162183 -0.25809118 -0.17034426
0.19176555 -0.20942974 0.22117606 0.18753877 -0.48120046 0.22899182 -0.052419025 0.12824002
-0.35572752 0.49181965 0.24535386 0.21497174 0.08966318 -0.20134875 -0.058451943 -0.37194222
0.2528302 -0.4052257 -0.06805678 0.22136492 -0.24727494 -0.08400766 -0.10453493 0.054280717
-0.4361191 -0.20372167 0.24390948 -0.28888404 -0.042088993 0.23273818 -0.35732302 -0.02979409
-0.11743602 -0.18089771 -0.24908814 0.23129018 -0.47206295 0.16448846 -0.2941175 -0.33030662
-0.062079277 0.14199436 -0.20324576 0.19011627 -0.005871899 0.1751487 0.12787758 0.22411664
0.13453571 0.011316542 -0.18788235 -0.37797886 0.006863841 -0.13117534 0.011194994 0.012951581
-0.14792411 -0.21243204 0.20773144 -0.5121672 0.086466715 -0.09543052 0.19831206 0.051411204
-0.01841489 -0.19595245 0.23117746 -0.30116934 -0.347756 0.17054129 -0.25656283 0.14287938
-0.443513 0.06450197 0.012092424 0.041830074 -0.36281815 0.186579 0.13916115 0.27791893
0.13350491 0.072415836 0.07411917 0.15325873 0.26483542 0.17524564 0.1322324 0.01091222
0.25482127 -0.24598752 0.107491 -0.22030817 -0.28548753 -0.21982832 -0.14490597 -0.06636429
-0.2217946 -0.35489026 -0.22542825 0.17351407 -0.3934867 -0.21218555 0.30014032 -0.057288565
-0.061517674 0.33533788 0.07482021 -0.72060674 -0.34688807 0.07237003 0.056009997 0.04993244
-0.04942989 0.18966481 0.007331221 -0.2488273 0.19624852 -0.02740224 0.032717347 0.22481073
0.15018538 0.0067973947 -0.5180664 0.09630603 -0.14854081 0.08304482 -0.075934276 0.06928587
-0.0025397039 -0.096106894 0.10155964 -0.45109403 0.047674086 -0.21712577 -0.16965203 -0.13887586
-0.0050471555 -0.13715385 -0.06784413 -0.077395685 0.17902236 0.2207201 -0.07744702 0.22042517
-0.20937474 -0.26235196 0.09107031 -0.032276616 0.07716146 0.10613808 0.16508819 -0.5145085
0.08713276 0.07893664 -0.13161676 0.05162011 0.1842581 -0.04736565 -0.2599918 -0.018877853
00000000: 6801 0cbd 8a51 633c 419e 28bd f536 143d
00000010: 0c65 ab3d ea3a dbbe f874 b0be cbb2 b3be
00000020: 1649 b3be 5caf 59be aa09 e03d fbee f7be
00000030: a161 64be 8a4d 80be c68f e63d fe9b 53be
00000040: 2473 5a3d 2476 853e e70e 2b3d a95d 153e
00000050: 17e6 af3d e7f7 68be 0755 243d af33 293e
00000060: f573 633e d730 9dbe fed8 8c3e eb96 6f3d
00000070: 84c8 8abe 4805 a8be a335 07be 6725 a63b
00000080: 8eec 6b3e 7faf f5bd 17bd 923e 2d78 c63d
00000090: 1b1f c23e 88f0 563e 6c15 34be 7280 a33d
000000a0: 6947 8c3d 8a66 333c 47a0 06be 7687 893d
000000b0: 4d26 90bd 3923 883e 5275 7f3e ed12 283e
000000c0: b5fe 953d 7576 96bd 1ea6 41bd b4c1 58be
000000d0: be3c 243e ecaa 3e3e ee9f 35be 1fd7 b03d
000000e0: e00b 78be 892c a5be 68c9 bb3d bc60 ecbb
000000f0: 410d c63d 8755 3abe 5f57 31bd 8897 babd
00000100: f726 99be 1301 fabe b054 cebe 6b8d 25bf
00000110: e517 23be 23e1 fabe f7e9 33bd fd2e 8fbd
00000120: 04fb 593e ddfa 2b3e 06ea 973c 482c f0be
00000130: 0df7 0f3d 584c 04be c8ec 8cba 0a4c 0bbd
00000140: 2708 06bf 98c3 adbe 0562 c9bd 92de 54be
00000150: 0f5f 4dbe cfdd b0be 2e70 b23d 1adb 91be
00000160: 974f 63bd 7e72 273e 8c19 c7bd 8208 ec3d
00000170: bdd1 8fbe e543 473c 8724 84be ba6e 2ebe
00000180: 305e 443e c074 56be fa7b 623e 2a0a 403e
00000190: e85f f6be d57c 6a3e 55b5 56bd 5a51 033e
000001a0: eb21 b6be c9cf fb3e 0b3e 7b3e 8d21 5c3e
000001b0: 54a1 b73d 5e2e 4ebe 4e6b 6fbd 366f bebe
000001c0: f672 813e be79 cfbe 5a61 8bbd 7cad 623e
000001d0: a435 7dbe 350c acbd 6916 d6bd 7555 5e3d
000001e0: 014b dfbe 6a9c 50be 68c3 793e 9ce8 93be
000001f0: 8265 2cbd eb52 6e3e 0bf3 b6be bc12 f4bc
00000200: 4c82 f0bd 403d 39be f610 7fbe 55d7 6c3e
00000210: 3cb2 f1be aa6f 283e 9296 96be f31d a9be
00000220: d746 7ebd f866 113e a81f 50be d7ad 423e
00000230: 0f69 c0bb 2e5a 333e 57f2 023e d57e 653e
00000240: bbc3 093e 0469 393c 3b64 40be 7286 c1be
00000250: 12ea e03b d452 06be 356b 373c de32 543c
00000260: 6b79 17be c987 59be 8db7 543e 641d 03bf
00000270: 7615 b13d 1471 c3bd 5112 4b3e 8e94 523d
00000280: d3da 96bc c2a7 48be c9b9 6c3e de32 9abe
00000290: 130d b2be 60a2 2e3e 345c 83be f94e 123e
000002a0: 2314 e3be 9c19 843d 4d1f 463c 0356 2b3d
000002b0: 4dc3 b9be 910e 3f3e 4380 0e3e 644b 8e3e
000002c0: 83b5 083e c14e 943d cbcb 973d dbef 1c3e
000002d0: 8298 873e 9873 333e ee67 073e 2bc9 323c
000002e0: ef77 823e 27e4 7bbe 3e24 dc3d 7798 61be
000002f0: 6c2b 92be ad1a 61be 3b62 14be 00ea 87bd
00000300: 201e 63be 2db4 b5be aad6 66be acad 313e
00000310: 1777 c9be 2b47 59be feab 993e 6aa7 6abd
00000320: f5f9 7bbd 68b1 ab3e 573b 993d af79 38bf
00000330: 509b b1be bd36 943d bd6a 653d f585 4c3d
00000340: ff76 4abd 7e37 423e bd3a f03b 95cc 7ebe
00000350: 5ff5 483e aa7a e0bc a002 063d c934 663e
00000360: 32ca 193e aebc de3b 00a0 04bf 193c c53d
00000370: 151b 18be 6713 aa3d 6e83 9bbd c0e5 8d3d
00000380: 2971 26bb b1d3 c4bd 80fe cf3d ccf5 e6be
00000390: e745 433d 3856 5ebe 43b9 2dbe 7935 0ebe
000003a0: 9c62 a5bb 0f72 0cbe ddf1 8abd a181 9ebd
000003b0: a351 373e 7304 623e 8b9c 9ebd 23b7 613e
000003c0: 5566 56be ff52 86be 1283 ba3d 7c34 04bd
000003d0: d406 9e3d ec5e d93d e10c 293e d4b6 03bf
000003e0: a972 b23d 88a9 a13d 8bc6 06be 9c6f 533d
000003f0: 28ae 3c3e 7c02 42bd a51d 85be baa5 9abc

sequential/conv2d/Conv2D f4 [32, 3, 3, 1]
0.18263456 -0.34648767 0.21495675 -0.14801966 0.0044334377 0.12618542 0.0049126293 -0.2394554
0.23436834 0.22647175 -0.15247318 -0.26288167 0.24264935 -0.0022459812 -0.1406268 0.18143186
-0.058841445 -0.0029455684 0.1176281 -0.5943375 -0.5756077 -0.15459126 -0.6314535 -0.75406325
-0.29358947 -1.0973985 -0.47320148 0.06710728 -0.20212893 -0.013928069 0.027991978 0.058099747
0.042884286 0.2057008 -0.12736331 -0.17863902 -0.36172903 -0.5163349 -0.0209699 -0.5410471
-1.0619311 -0.17057298 -0.21746951 -0.24973904 0.22051664 0.07462066 0.107328184 0.011654036
0.09313984 0.037966277 -0.07595612 -0.051296268 -0.034567904 0.08419016 -0.9100778 -0.11258338
0.21211497 -0.6351966 0.06874354 -0.049251545 0.12286968 -0.020146145 -0.09389472 0.009057471
0.1235299 0.089576595 0.05692882 -0.018727425 0.0035226613 -0.05776473 -0.050264437 -0.09814403
-0.02816893 0.288298 -0.18378341 0.024526585 0.2257218 -0.26550487 0.015505287 0.1070087
-0.19208315 0.18186483 -0.095281325 0.15697673 -0.008264074 0.05722505 0.112381704 -0.06922238
-0.20177436 -0.273525 -0.16644208 -0.10398496 -0.39698067 0.08975369 0.096381605 -0.15717207
0.19822688 0.17697568 0.20150992 0.15408984 0.2809679 0.11960659 -0.11166488 -0.12314278
-0.19112994 0.019843485 -0.18128361 0.026566727 0.3375221 -0.33100647 -0.02183619 -0.16476691
0.18885638 -0.0040729837 -0.115319826 0.08431323 0.006689913 0.020228658 0.23830496 -0.28001475
0.113064475 -0.10186384 0.076611824 0.25426638 -0.11608422 -0.17189975 -0.18090083 -0.21019788
0.13090141 -0.21218915 -0.1226024 0.25069034 0.16940463 0.016354838 0.200003 -0.21372324
-0.051065315 0.053216893 -0.07224465 0.20644873 0.09061324 -0.128905 0.2643687 -0.09299647
-0.16503283 -0.2032572 0.086019866 -0.24754092 -0.07981411 0.34191158 -0.47068676 0.10796857
-0.058804203 -0.16443601 0.047416538 0.12416485 -0.23643297 0.24620664 -0.036256794 -0.13909331
0.0425811 0.13271771 -0.022820242 -0.6688082 -0.35286984 0.16271192 -0.45606664 -0.9190745
0.1298969 0.0028586977 -0.17511012 -0.066172436 0.07785784 -0.124114074 -0.026170133 0.045250304
0.064224266 -0.006547262 -0.16481534 -0.0038521162 -0.026214868 0.09578653 -0.0411926 -0.0050963173
0.08538026 -0.28410068 -0.16632527 0.0018965813 0.10167816 -0.41272235 -1.0403225 -0.08413309
-0.496156 -0.48220223 0.094109125 0.05280837 0.109079845 0.14486249 0.090113334 -0.12880379
0.27277267 0.06141363 -0.24431974 -0.024981434 0.2149697 -0.048398912 -0.17597301 -0.12801811
-0.05459776 -0.035876185 -0.10165473 0.004132208 -0.12213795 -0.07221157 -0.090139575 -0.14106187
-0.011320397 0.22172318 -0.2014764 -0.093664326 0.26805437 -0.1458198 -0.21762446 0.12946731
0.09787838 0.0353404 -0.1506668 -0.10374835 0.16858658 0.04131272 -0.2002527 -0.009496787
0.1255756 -0.07641379 0.072119236 0.20616822 -0.22058071 0.3302995 -0.08355238 -0.044998858
-0.29754826 -0.26073733 0.28085992 -0.106824644 0.16327459 0.03204435 -0.07837166 -0.029790012
0.15562335 -0.22377084 0.020101106 0.122392625 0.17489663 0.26614428 0.22868037 -0.060764853
00000000: 8e04 3b3e d566 b1be 9f1d 5c3e 7792 17be
00000010: 5f46 913b c036 013e 1ffa a03b cc33 75be
00000020: 41fe 6f3e 36e8 673e ee21 1cbe 6d98 86be
00000030: 1279 783e 5031 13bb 7900 10be 46c9 393e
00000040: ba03 71bd 700a 41bb 00e7 f03d 8126 18bf
00000050: 075b 13bf 2c4d 1ebe f0a6 21bf 4a0a 41bf
00000060: 5c51 96be 8e77 8cbf 7747 f2be 8b6f 893d
00000070: e3fa 4ebe 8e32 64bc 6f4f e53c 00fa 6d3d
00000080: 6fa7 2f3d 3ba3 523e 876b 02be 26ed 36be
00000090: 8c34 b9be 862e 04bf 11c9 abbc 1082 0abf
000000a0: 5ced 87bf afaa 2ebe 54b0 5ebe 97bb 7fbe
000000b0: 1dcf 613e b7d2 983d e1ce db3d 92f0 3e3c
000000c0: 1ac0 be3d 8782 1b3d e28e 9bbd 091c 52bd
000000d0: 1397 0dbd e46b ac3d dcfa 68bf 1d92 e6bd
000000e0: ab34 593e 3f9c 22bf 6ac9 8c3d fdbb 49bd
000000f0: 19a3 fb3d 8709 a5bc e04b c0bd c965 143c
00000100: 3ffd fc3d ef73 b73d 322e 693d 426a 99bc
00000110: 73dc 663b b69a 6cbd 15e2 4dbd bdff c8bd
00000120: 87c2 e6bc cc9b 933e b831 3cbe faeb c83c
00000130: 9e23 673e 41f0 87be e309 7e3c 6127 db3d
00000140: 72b1 44be c63a 3a3e db22 c3bd 82be 203e
00000150: 0a66 07bc d064 6a3d 6128 e63d 77c4 8dbd
00000160: f09d 4ebe 780b 8cbe cb6f 2abe 11f6 d4bd
00000170: 0d41 cbbe c8d0 b73d b863 c53d b7f1 20be
00000180: fdfb 4a3e 1d39 353e 9e58 4e3e bac9 1d3e
00000190: 06db 8f3e 4df4 f43d 8eb0 e4bd 4832 fcbd
000001a0: 91b7 43be ce8e a23c 69a2 39be 77a2 d93c
000001b0: b2cf ac3e ae79 a9be cfe1 b2bc a8b8 28be
000001c0: 9163 413e aa76 85bb cd2c ecbd 6aac ac3d
000001d0: 0f37 db3b 92b6 a53c 3706 743e 185e 8fbe
000001e0: 598e e73d fd9d d0bd a9e6 9c3d 342f 823e
000001f0: 90bd edbd 7d06 30be 113e 39be 1d3e 57be
00000200: 050b 063e 1d48 59be f816 fbbd 7c5a 803e
00000210: 6878 2d3e 95fa 853c 96cd 4c3e 44da 5abe
00000220: dd29 51bd f5f9 593d 01f5 93bd 4c67 533e
00000230: 6f93 b93d acff 03be 565b 873e ef74 bebd
00000240: 5efe 28be a822 50be 2f2b b03d 5e7b 7dbe
00000250: 9575 a3bd 090f af3e dbfd f0be a01e dd3d
00000260: addc 70bd ea61 28be d837 423d 244a fe3d
00000270: 7c1b 72be 981d 7c3e 0182 14bd 7a6e 0ebe
00000280: 8569 2e3d 27e7 073e 84f1 babc 0437 2bbf
00000290: 5bab b4be f49d 263e 9181 e9be 7748 6bbf
000002a0: b103 053e fd58 3b3b 1150 33be 6a85 87bd
000002b0: ee73 9f3d 852f febd bf62 d6bc 6258 393d
000002c0: 0388 833d 6a8a d6bb 5ac5 28be c973 7cbb
000002d0: 90c0 d6bc ba2b c43d 92b9 28bd 02ff a6bb
000002e0: d9db ae3d a575 91be 2c51 2abe b596 f83a
000002f0: a43c d03d 5850 d3be 4a29 85bf f84d acbd
00000300: 2908 febe 36e3 f6be 49bc c03d 974d 583d
00000310: 4165 df3d d556 143e 578d b83d 24e5 03be
00000320: dca8 8b3e dc8c 7b3d f42e 7abe dda5 ccbc
00000330: 0421 5c3e f03d 46bd 4532 34be 2e17 03be
00000340: e7a1 5fbd e8f2 12bd 5b30 d0bd 7967 873b
00000350: 7623 fabd a9e3 93bd 199b b8bd 8672 10be
00000360: 3079 39bc 670b 633e d44f 4ebe 15d3 bfbd
00000370: 6c3e 893e c951 15be f2d8 5ebe 1493 043e
00000380: 7674 c83d 18c1 103d 6648 1abe 047a d4bd
00000390: f6a1 2c3e 8737 293d 0b0f 4dbe 6998 1bbc
000003a0: e496 003e d57e 9cbd 40b3 933d c31d 533e
000003b0: e9df 61be 041d a93e 831d abbd b950 38bd
000003c0: 3f58 98be 5d7f 85be dfcc 8f3e e1c6 dabd
000003d0: 7431 273e f040 033d 5281 a0bd 2f0a f4bc
000003e0: ba5b 1f3e 2f24 65be 13ab a43c fca8 fa3d
000003f0: 1a18 333e 1044 883e 302b 6a3e 91e4 78bd

sequential/conv2d_1/Conv2D f4 [64, 3, 3, 32]
-0.00458187 0.051756114 -0.100580126 -0.08191178 0.05128579 -0.04039087 -0.0013077604 0.041330002
-0.0873351 -0.079156265 -0.08847507 0.026089339 -0.04603462 -0.102242805 -0.063904636 -0.02083162
0.0019903805 0.008720486 0.04067589 0.0548295 -0.027231937 0.06007777 -0.07059227 0.04700828
-0.061776288 -0.06758148 -0.024262035 -0.05295396 -0.055892516 -0.040389456 -0.055371992 -0.026827384
0.021302495 -0.10097311 0.026839038 0.04263402 0.040986914 0.052917995 -0.010238571 -0.051327292
-0.022408208 0.025154483 -0.014781811 0.049990095 0.011546192 -0.041702036 -0.0753404 -0.09828716
0.01971854 0.030307697 -0.041372564 -0.085618004 -0.069788665 -0.08990859 0.020690484 0.079063505
-0.032508906 -0.048836563 -0.033838496 -0.096028656 -0.08958851 -0.11001268 0.064595126 -0.04330176
-0.029209217 0.035303768 -0.023468494 -0.004712303 -0.043437984 -0.05078765 0.04797814 0.03571015
-0.055323333 -0.040993825 -0.03959581 0.04362836 -0.011424474 -0.068440296 -0.016793493 -0.06323347
-0.09966305 -0.05762108 0.015429205 -0.06612026 -0.06356232 -0.053644378 -0.10138774 -0.07185128
-0.069636166 -0.029553397 -0.09990482 -0.044009723 0.047198754 -0.009329144 -0.06620776 -0.058447614
-0.012230022 -0.061473574 0.03590951 0.0034691792 -0.004804733 -0.021288741 -0.05491394 -0.031816244
-0.0599378 0.045720827 -0.03597217 0.031072985 -0.056059513 0.025201516 0.014987496 -0.06929555
-0.06640504 -0.0020746517 0.0126684 0.05398956 0.02464074 -0.02706846 -0.063398644 0.06292743
-0.050266214 -0.07684507 0.029730648 -0.06287027 -0.10125172 0.016510407 0.041845854 -0.010535362
-0.049333427 -0.0048527913 -0.10984387 -0.055896245 -0.057507686 -0.06438598 -0.045883972 0.07339796
-0.073058106 0.056827717 0.03328175 -0.031156212 -0.09052731 0.041275714 0.008206024 -0.038971204
-0.018261373 -0.017936878 -0.037309073 0.0709557 0.04145253 -0.0714756 -0.06308666 -0.018232549
0.029966746 0.06035581 -0.057776097 -0.09940209 -0.06403276 0.028247064 0.00015018489 0.048693668
-0.040352874 -0.095398396 0.05375 -0.06302872 -0.03476822 -0.03354699 0.021234859 0.042166665
-0.07859479 0.07416578 0.028077468 0.021462733 0.0054690046 -0.010964146 0.022968577 0.012634601
0.010152968 -0.12395699 -0.0955512 -0.076259844 -0.06738263 -0.0725931 -0.033275478 0.06794934
-0.020180078 -0.09040945 0.022041243 -0.078682855 -0.07238824 -0.09899237 -0.07613808 0.05219455
0.03213587 -0.0063539534 -0.099966966 0.055697657 0.046325713 0.00023570149 -0.013273461 -0.10104959
-0.027269723 -0.07813166 -0.029887004 0.0010512761 -0.096168734 -0.025135202 -0.07556378 -0.050278705
0.012050551 0.002517325 0.029225465 0.056589395 -0.026117427 -0.10587119 -0.035697464 0.045652837
0.028400183 0.0035580911 -0.037770838 -0.07360587 -0.06319156 -0.05149433 0.012630753 -0.06970498
-0.076832734 -0.098225646 0.029304503 0.0046515544 -0.055822544 -0.06931672 -0.00513797 -0.009227594
0.019870894 0.05030809 -0.10603272 -0.11524614 -0.040445533 0.032016862 -0.05194135 -0.09186065
-0.103869475 -0.0215722 -0.0067860815 -0.04626996 -0.061237246 -0.013233386 0.0059327944 0.04025207
-0.006666435 -0.08941512 -0.0797439 -0.08651387 -0.06445579 0.035202973 0.020920062 -0.008887005
00000000: 8323 96bb 38fe 533d f4fc cdbd 5dc1 a7bd
00000010: 0c11 523d e670 25bd 2869 abba a649 293d
00000020: bfdc b2bd ae1c a2bd 6b32 b5bd 4fb9 d53c
00000030: cc8e 3cbd ad64 d1bd 6fe0 82bd 13a7 aabc
00000040: 0b71 023b 5fe0 0e3c c39b 263d e694 603d
00000050: 8315 dfbc 1c14 763d ae92 90bd c18b 403d
00000060: 2209 7dbd 2968 8abd 2dc1 c6bc 40e6 58bd
00000070: 8def 64bd 6a6f 25bd becd 62bd 1ac5 dbbc
00000080: 9282 ae3c fdca cebd 8bdd db3c 03a1 2e3d
00000090: e5e1 273d 8ac0 583d aebf 27bc 913c 52bd
000000a0: 6b91 b7bc c610 ce3c 692f 72bc 6ac2 4c3d
000000b0: 3d2c 3d3c c1cf 2abd 114c 9abd c74a c9bd
000000c0: c788 a13c d947 f83c 4776 29bd 7e58 afbd
000000d0: 5ced 8ebd ff21 b8bd 177f a93c 0cec a13d
000000e0: 0f28 05bd d908 48bd 3c9a 0abd acaa c4bd
000000f0: 2e7a b7bd 544e e1bd 734a 843d 305d 31bd
00000100: 2b48 efbc af9a 103d 0041 c0bc aa69 9abb
00000110: 07ec 31bd b606 50bd ba84 443d ce44 123d
00000120: b89a 62bd 24e9 27bd 372f 22bd a7b3 323d
00000130: b82d 3bbc 6d2a 8cbd 8292 89bc 8d80 81bd
00000140: 241c ccbd 1504 6cbd c7ca 7c3c 0f6a 87bd
00000150: f62c 82bd 35ba 5bbd 60a4 cfbd c426 93bd
00000160: 689d 8ebd f719 f2bc e69a ccbd 8a43 34bd
00000170: 7b53 413d 44d9 18bc ef97 87bd c466 6fbd
00000180: 6e60 48bc b7cb 7bbd da15 133d 2b5b 633b
00000190: 0671 9dbb ba65 aebc 71ed 60bd c051 02bd
000001a0: 5781 75bd c345 3b3d 8e57 13bd c68c fe3c
000001b0: a99e 65bd 6973 ce3c 1d8e 753c d3ea 8dbd
000001c0: 5eff 87bd e1f6 07bb 1f8f 4f3c 2824 5d3d
000001d0: 61db c93c adbe ddbc 26d7 81bd 19e0 803d
000001e0: f2e3 4dbd f360 9dbd b08d f33c 21c2 80bd
000001f0: 105d cfbd d540 873c 8f66 2b3d 839c 2cbc
00000200: d911 4abd 2a04 9fbb d3f5 e0bd 76f3 64bd
00000210: 2e8d 6bbd ccdc 83bd d5f0 3bbd ab51 963d
00000220: 7d9f 95bd 2ec4 683d 7252 083d 503b ffbc
00000230: 6266 b9bd b910 293d 8f72 063c 45a0 1fbd
00000240: e098 95bc 5cf0 92bc 66d1 18bd 3951 913d
00000250: 21ca 293d cd61 92bd 9433 81bd 6d5c 95bc
00000260: d27c f53c a737 773d a1a6 6cbd 5393 cbbd
00000270: 9c23 83bd 6366 e73c f37a 1d39 0373 473d
00000280: 0e49 25bd 3c60 c3bd f628 5c3d 3415 81bd
00000290: 1f69 0ebd 9268 09bd baf4 ad3c f4b6 2c3d
000002a0: 4ef6 a0bd 3ae4 973d b802 e63c 9dd2 af3c
000002b0: 5635 b33b f6a2 33bc 9928 bc3c 5c01 4f3c
000002c0: a258 263c 2add fdbd 59b0 c3bd 1f2e 9cbd
000002d0: e8ff 89bd b1ab 94bd de4b 08bd 0629 8b3d
000002e0: b150 a5bc 9728 b9bd d68f b43c 7a24 a1bd
000002f0: 4940 94bd 83bc cabd 48ee 9bbd f4c9 553d
00000300: e7a0 033d d334 d0bb 7bbb ccbd 3a23 643d
00000310: 08c0 3d3d a326 7739 ee78 59bc 16f3 cebd
00000320: c164 dfbc 7e03 a0bd 97d5 f4bc f9ca 893a
00000330: 1df4 c4bd 57e8 cdbc 2fc1 9abd 0bf1 4dbd
00000340: ad6f 453c b5f9 243b 3e6a ef3c 48ca 673d
00000350: 37f4 d5bc ffd2 d8bd 8137 12bd 78fe 3a3d
00000360: 80a7 e83c dd2e 693b 98b5 1abd adbe 96bd
00000370: 946a 81bd b8eb 52bd 38f1 4e3c 7cc1 8ebd
00000380: 7b5a 9dbd 872a c9bd ff0f f03c 116c 983b
00000390: 2ea6 64bd edf5 8dbd 6b5c a8bb 562f 17bc
000003a0: 49c8 a23c db0f 4e3d af27 d9bd 2b06 ecbd
000003b0: 37aa 25bd 1d24 033d 74c0 54bd 7021 bcbd
000003c0: 85b9 d4bd 2fb8 b0bc c75d debb 9285 3dbd
000003d0: e8d3 7abd d8d0 58bc e367 c23b 5bdf 243d
000003e0: 1c72 dabb 461f b7bd c550 a3bd 2f2e b1bd
000003f0: 6601 84bd fe30 103d 8d60 ab3c cd9a 11bc

sequential/conv2d_2/Conv2D f4 [64, 3, 3, 64]
0.014503188 -0.013222453 -0.050188776 -0.08462512 0.048691556 0.08956605 -0.014185255 0.035534393
-0.08954232 0.10515835 0.101489745 -0.053348534 0.15274633 0.26947173 0.08639455 0.13399665
0.057630975 0.018160092 0.056050822 0.16417815 0.14365874 -0.13852064 -0.09724845 0.07761154
0.07344984 0.027846018 -0.1777754 0.20049588 0.16405605 -0.062308792 -0.020357355 -0.07678789
0.055004273 -0.032814763 0.0059098606 -0.23542324 0.035159845 0.041243877 0.04166002 0.23502584
0.059284564 -0.02207004 -0.023366516 -0.2627992 0.1333695 -0.02839705 0.13063648 0.032031853
0.06271361 -0.020360667 -0.09476106 0.15988958 -0.091238 -0.012826138 0.073795006 0.0753983
-0.015068256 -0.06483806 -0.027033078 -0.056014817 0.039852854 -0.04799668 0.31406054 -0.032161437
-0.0257512 -0.18136244 0.18299675 0.04612298 -0.20456022 -0.17259832 -0.06258301 0.3222513
-0.17065164 -0.07760498 0.16931583 0.15823361 -0.21968532 -0.07302625 0.17843531 -0.09315889
-0.027968943 -0.0010349458 -0.23226133 0.021825528 -0.008807033 0.15754323 -0.19366154 -0.21663313
0.23879568 0.048189744 0.11447898 0.09542203 0.15879957 0.107768945 0.037692044 0.046454214
0.092985936 -0.061803095 -0.04991177 -0.009489187 0.09776664 0.017184742 0.021387866 0.032802634
0.073503904 0.085379004 0.035849873 -0.014704578 0.08643845 -0.0014567336 -0.28078517 -0.17912057
-0.02941622 -0.0023043873 -0.27253845 -0.10853027 0.16909085 0.10059029 0.010226463 -0.17273997
-0.2398038 0.17339773 0.10560032 -0.04438166 0.08021057 -0.13247564 0.16123514 -0.050495423
-0.05220251 0.0993514 0.124678485 -0.042818148 -0.065714695 -0.14506677 0.060047682 0.29952258
0.061475895 -0.16802627 -0.13758484 0.38298735 -0.09029421 -0.21537343 -0.092446595 -0.3658389
0.11968346 0.14149952 -0.3495199 -0.14779489 -0.20732479 0.24826622 0.15724787 -0.07843867
0.037910823 -0.021696625 0.16558442 -0.26651487 -0.13494074 0.24087021 0.02002166 -0.05161176
-0.27222568 0.078351066 0.006470915 0.13527459 -0.14744774 -0.07886077 -0.06692353 -0.24808049
-0.24243543 0.1689797 0.13743092 0.31947032 -0.062196106 0.060708575 -0.26262924 0.12209378
-0.009555385 0.08108648 0.2620944 -0.19771302 0.08308907 -0.055069655 -0.010599387 -0.068063416
-0.3192502 -0.15280175 -0.012401835 0.055886336 0.024977097 -0.041733824 -0.15928607 -0.2252298
-0.049856737 0.010558295 -0.09768047 -0.058080636 0.030142609 0.042536233 0.07973578 -0.12646517
0.06447952 -0.0001827581 -0.10139054 -0.021239625 0.04306297 0.14310165 -0.084978536 0.026553787
-0.021484276 -0.065367796 0.017906046 0.09675726 0.079146445 -0.1863783 -0.14558294 -0.05561465
0.0059457878 0.019097336 -0.008849952 0.054397877 -0.0490969 -0.11711166 -0.024262324 -0.072697766
-0.1284988 -0.069770314 -0.03849364 -0.08091179 0.095959194 0.039382484 -0.060257476 0.080723174
-0.0958579 -0.035937756 0.04267395 -0.013593549 0.07951657 -0.0029123854 -0.08189562 0.01982134
-0.0027227136 0.17172144 -0.20084722 -0.014656162 -0.0008264859 0.047426455 0.07509049 -0.14103591
0.019879775 -0.11587691 -0.1671151 -0.14352043 0.0065275338 0.08408433 -0.0020234797 -0.005917084
00000000: c89e 6d3c fda2 58bc bf92 4dbd ef4f adbd
00000010: cc70 473d 686e b73d 4669 68bc 838c 113d
00000020: f761 b7bd 435d d73d dbd9 cf3d fe83 5abd
00000030: 8969 1c3e 33f8 893e a0ef b03d 6b36 093e
00000040: 750e 6c3d 79c4 943c 8c95 653d 511e 283e
00000050: 471b 133e 5bd8 0dbe 322a c7bd cdf2 9e3d
00000060: df6c 963d 551d e43c c10a 36be cb4e 4d3e
00000070: 4ffe 273e 8137 7fbd 78c4 a6bc f842 9dbd
00000080: 294c 613d c668 06bd 81a7 c13b ca12 71be
00000090: c503 103d 57ef 283d b2a3 2a3d 9daa 703e
000000a0: 5fd4 723d 3bcc b4bc 236b bfbc 9e8d 86be
000000b0: 0492 083e eea0 e8bc 92c5 053e d533 033d
000000c0: fe6f 803d 6acb a6bc 1612 c2bd 18ba 233e
000000d0: fdda babd b924 52bc d621 973d 6d6a 9a3d
000000e0: d9e0 76bc d1c9 84bd 7974 ddbc cb6f 65bd
000000f0: bf3c 233d 2b98 44bd 8bcc a03e b6bb 03bd
00000100: 2ef4 d2bc 13b7 39be 8063 3b3e 73eb 3c3d
00000110: 3c78 51be 9dbd 30be 852b 80bd 1ffe a43e
00000120: 4ebf 2ebe 5cef 9ebd 2161 2d3e fe07 223e
00000130: 30f5 60be c98e 95bd bfb7 363e 17ca bebd
00000140: 201f e5bc 05a7 87ba ead5 6dbe 73cb b23c
00000150: 604b 10bc 0353 213e 364f 46be 13d5 5dbe
00000160: db86 743e 9c62 453d f573 ea3d a06c c33d
00000170: 5b9c 223e f7b5 dc3d f962 1a3d c646 3e3d
00000180: 696f be3d 3e25 7dbd 4970 4cbd 8978 1bbc
00000190: e039 c83d 04c7 8c3c 9b35 af3c 0e5c 063d
000001a0: 3789 963d 30db ae3d 51d7 123d 78eb 70bc
000001b0: a406 b13d deef beba 13c3 8fbe 626b 37be
000001c0: 49fa f0bc 3405 17bb 298a 8bbe 1e45 debd
000001d0: 2726 2d3e 4802 ce3d e58c 273c bfe2 30be
000001e0: 218f 75be 2d8f 313e fb44 d83d 8bc9 35bd
000001f0: 7045 a43d b2a7 07be d31a 253e 4ad4 4ebd
00000200: 4dd2 55bd bf78 cb3d 6f57 ff3d 1562 2fbd
00000210: 6d95 86bd 628c 14be 8ff4 753d 065b 993e
00000220: 26ce 7b3d 140f 2cbe 0ae3 0cbe eb16 c43e
00000230: 2cec b8bd da8a 5cbe a454 bdbd 3c4f bbbe
00000240: 9a1c f53d 40e5 103e 46f4 b2be 8b57 17be
00000250: f34c 54be 8039 7e3e 9605 213e 74a4 a0bd
00000260: 6148 1b3d 1fbd b1bc f68e 293e a374 88be
00000270: e82d 0abe aea6 763e 7704 a43c da66 53bd
00000280: 2a61 8bbe 8676 a03d f809 d43b 6c85 0a3e
00000290: 8afc 16be c181 a1bd 340f 89bd d008 7ebe
000002a0: fe40 78be 0409 2d3e b1ba 0c3e 9d91 a33e
000002b0: 58c1 7ebd 8ea9 783d 5777 86be 4e0c fa3d
000002c0: 318e 1cbc ab10 a63d 3d31 863e 4875 4abe
000002d0: 9a2a aa3d b890 61bd 0da9 2dbc d564 8bbd
000002e0: c374 a3be 1078 1cbe 1131 4bbc 12e9 643d
000002f0: c59c cc3c 16f1 2abd e31b 23be a4a2 66be
00000300: 9436 4cbd b3fc 2c3c b30c c8bd f6e5 6dbd
00000310: a2ed f63c 793a 2e3d 834c a33d 1680 01be
00000320: d70d 843d c1a2 3fb9 d8a5 cfbd b9fe adbc
00000330: cc62 303d 3d89 123e 3a09 aebd 5487 d93c
00000340: cbff afbc 8ddf 85bd b3af 923c ac28 c63d
00000350: 8817 a23d f4d9 3ebe b213 15be 30cc 63bd
00000360: e2d4 c23b 0472 9c3c 64ff 10bc 4fd0 5e3d
00000370: d519 49bd 3dd8 efbd c8c1 c6bc 91e2 94bd
00000380: 3095 03be bde3 8ebd 82ab 1dbd 15b5 a5bd
00000390: 4186 c43d 874f 213d 8bd0 76bd 3152 a53d
000003a0: 2651 c4bd 7833 13bd e1ca 2e3d 7ab7 5ebc
000003b0: 95d9 a23d b8dd 3ebb e4b8 a7bd 5d60 a23c
000003c0: 8e6f 32bb bfd7 2f3e e5aa 4dbe 6620 70bc
000003d0: 88a8 58ba 3e42 423d 0bc9 993d b86b 10be
000003e0: e9da a23c e050 edbd 3920 2bbe 05f7 12be
000003f0: ece4 d53b 6834 ac3d 5b9c 04bb 19e4 c1bb
